{"config": {"layers": [{"name": "input_1", "config": {"name": "input_1", "sparse": false, "batch_input_shape": [null, 224, 224, 3], "dtype": "float32"}, "class_name": "InputLayer", "inbound_nodes": []}, {"name": "zero_padding2d_1", "config": {"padding": [[3, 3], [3, 3]], "name": "zero_padding2d_1", "data_format": "channels_last", "trainable": false}, "class_name": "ZeroPadding2D", "inbound_nodes": [[["input_1", 0, 0, {}]]]}, {"name": "conv1/conv", "config": {"kernel_constraint": null, "bias_initializer": {"config": {}, "class_name": "Zeros"}, "activity_regularizer": null, "use_bias": false, "strides": [2, 2], "dilation_rate": [1, 1], "filters": 64, "activation": "linear", "kernel_size": [7, 7], "padding": "valid", "bias_constraint": null, "trainable": false, "name": "conv1/conv", "kernel_regularizer": null, "bias_regularizer": null, "kernel_initializer": {"config": {"distribution": "uniform", "scale": 1.0, "mode": "fan_avg", "seed": null}, "class_name": "VarianceScaling"}, "data_format": "channels_last"}, "class_name": "Conv2D", "inbound_nodes": [[["zero_padding2d_1", 0, 0, {}]]]}, {"name": "conv1/bn", "config": {"gamma_initializer": {"config": {}, "class_name": "Ones"}, "beta_constraint": null, "momentum": 0.99, "gamma_constraint": null, "name": "conv1/bn", "epsilon": 1.001e-05, "gamma_regularizer": null, "trainable": false, "beta_initializer": {"config": {}, "class_name": "Zeros"}, "beta_regularizer": null, "axis": 3, "moving_mean_initializer": {"config": {}, "class_name": "Zeros"}, "center": true, "moving_variance_initializer": {"config": {}, "class_name": "Ones"}, "scale": true}, "class_name": "BatchNormalization", "inbound_nodes": [[["conv1/conv", 0, 0, {}]]]}, {"name": "conv1/relu", "config": {"name": "conv1/relu", "trainable": false, "activation": "relu"}, "class_name": "Activation", "inbound_nodes": [[["conv1/bn", 0, 0, {}]]]}, {"name": "zero_padding2d_2", "config": {"padding": [[1, 1], [1, 1]], "name": "zero_padding2d_2", "data_format": "channels_last", "trainable": false}, "class_name": "ZeroPadding2D", "inbound_nodes": [[["conv1/relu", 0, 0, {}]]]}, {"name": "pool1", "config": {"name": "pool1", "padding": "valid", "pool_size": [3, 3], "strides": [2, 2], "data_format": "channels_last", "trainable": false}, "class_name": "MaxPooling2D", "inbound_nodes": [[["zero_padding2d_2", 0, 0, {}]]]}, {"name": "conv2_block1_0_bn", "config": {"gamma_initializer": {"config": {}, "class_name": "Ones"}, "beta_constraint": null, "momentum": 0.99, "gamma_constraint": null, "name": "conv2_block1_0_bn", "epsilon": 1.001e-05, "gamma_regularizer": null, "trainable": false, "beta_initializer": {"config": {}, "class_name": "Zeros"}, "beta_regularizer": null, "axis": 3, "moving_mean_initializer": {"config": {}, "class_name": "Zeros"}, "center": true, "moving_variance_initializer": {"config": {}, "class_name": "Ones"}, "scale": true}, "class_name": "BatchNormalization", "inbound_nodes": [[["pool1", 0, 0, {}]]]}, {"name": "conv2_block1_0_relu", "config": {"name": "conv2_block1_0_relu", "trainable": false, "activation": "relu"}, "class_name": "Activation", "inbound_nodes": [[["conv2_block1_0_bn", 0, 0, {}]]]}, {"name": "conv2_block1_1_conv", "config": {"kernel_constraint": null, "bias_initializer": {"config": {}, "class_name": "Zeros"}, "activity_regularizer": null, "use_bias": false, "strides": [1, 1], "dilation_rate": [1, 1], "filters": 128, "activation": "linear", "kernel_size": [1, 1], "padding": "valid", "bias_constraint": null, "trainable": false, "name": "conv2_block1_1_conv", "kernel_regularizer": null, "bias_regularizer": null, "kernel_initializer": {"config": {"distribution": "uniform", "scale": 1.0, "mode": "fan_avg", "seed": null}, "class_name": "VarianceScaling"}, "data_format": "channels_last"}, "class_name": "Conv2D", "inbound_nodes": [[["conv2_block1_0_relu", 0, 0, {}]]]}, {"name": "conv2_block1_1_bn", "config": {"gamma_initializer": {"config": {}, "class_name": "Ones"}, "beta_constraint": null, "momentum": 0.99, "gamma_constraint": null, "name": "conv2_block1_1_bn", "epsilon": 1.001e-05, "gamma_regularizer": null, "trainable": false, "beta_initializer": {"config": {}, "class_name": "Zeros"}, "beta_regularizer": null, "axis": 3, "moving_mean_initializer": {"config": {}, "class_name": "Zeros"}, "center": true, "moving_variance_initializer": {"config": {}, "class_name": "Ones"}, "scale": true}, "class_name": "BatchNormalization", "inbound_nodes": [[["conv2_block1_1_conv", 0, 0, {}]]]}, {"name": "conv2_block1_1_relu", "config": {"name": "conv2_block1_1_relu", "trainable": false, "activation": "relu"}, "class_name": "Activation", "inbound_nodes": [[["conv2_block1_1_bn", 0, 0, {}]]]}, {"name": "conv2_block1_2_conv", "config": {"kernel_constraint": null, "bias_initializer": {"config": {}, "class_name": "Zeros"}, "activity_regularizer": null, "use_bias": false, "strides": [1, 1], "dilation_rate": [1, 1], "filters": 32, "activation": "linear", "kernel_size": [3, 3], "padding": "same", "bias_constraint": null, "trainable": false, "name": "conv2_block1_2_conv", "kernel_regularizer": null, "bias_regularizer": null, "kernel_initializer": {"config": {"distribution": "uniform", "scale": 1.0, "mode": "fan_avg", "seed": null}, "class_name": "VarianceScaling"}, "data_format": "channels_last"}, "class_name": "Conv2D", "inbound_nodes": [[["conv2_block1_1_relu", 0, 0, {}]]]}, {"name": "conv2_block1_concat", "config": {"name": "conv2_block1_concat", "axis": 3, "trainable": false}, "class_name": "Concatenate", "inbound_nodes": [[["pool1", 0, 0, {}], ["conv2_block1_2_conv", 0, 0, {}]]]}, {"name": "conv2_block2_0_bn", "config": {"gamma_initializer": {"config": {}, "class_name": "Ones"}, "beta_constraint": null, "momentum": 0.99, "gamma_constraint": null, "name": "conv2_block2_0_bn", "epsilon": 1.001e-05, "gamma_regularizer": null, "trainable": false, "beta_initializer": {"config": {}, "class_name": "Zeros"}, "beta_regularizer": null, "axis": 3, "moving_mean_initializer": {"config": {}, "class_name": "Zeros"}, "center": true, "moving_variance_initializer": {"config": {}, "class_name": "Ones"}, "scale": true}, "class_name": "BatchNormalization", "inbound_nodes": [[["conv2_block1_concat", 0, 0, {}]]]}, {"name": "conv2_block2_0_relu", "config": {"name": "conv2_block2_0_relu", "trainable": false, "activation": "relu"}, "class_name": "Activation", "inbound_nodes": [[["conv2_block2_0_bn", 0, 0, {}]]]}, {"name": "conv2_block2_1_conv", "config": {"kernel_constraint": null, "bias_initializer": {"config": {}, "class_name": "Zeros"}, "activity_regularizer": null, "use_bias": false, "strides": [1, 1], "dilation_rate": [1, 1], "filters": 128, "activation": "linear", "kernel_size": [1, 1], "padding": "valid", "bias_constraint": null, "trainable": false, "name": "conv2_block2_1_conv", "kernel_regularizer": null, "bias_regularizer": null, "kernel_initializer": {"config": {"distribution": "uniform", "scale": 1.0, "mode": "fan_avg", "seed": null}, "class_name": "VarianceScaling"}, "data_format": "channels_last"}, "class_name": "Conv2D", "inbound_nodes": [[["conv2_block2_0_relu", 0, 0, {}]]]}, {"name": "conv2_block2_1_bn", "config": {"gamma_initializer": {"config": {}, "class_name": "Ones"}, "beta_constraint": null, "momentum": 0.99, "gamma_constraint": null, "name": "conv2_block2_1_bn", "epsilon": 1.001e-05, "gamma_regularizer": null, "trainable": false, "beta_initializer": {"config": {}, "class_name": "Zeros"}, "beta_regularizer": null, "axis": 3, "moving_mean_initializer": {"config": {}, "class_name": "Zeros"}, "center": true, "moving_variance_initializer": {"config": {}, "class_name": "Ones"}, "scale": true}, "class_name": "BatchNormalization", "inbound_nodes": [[["conv2_block2_1_conv", 0, 0, {}]]]}, {"name": "conv2_block2_1_relu", "config": {"name": "conv2_block2_1_relu", "trainable": false, "activation": "relu"}, "class_name": "Activation", "inbound_nodes": [[["conv2_block2_1_bn", 0, 0, {}]]]}, {"name": "conv2_block2_2_conv", "config": {"kernel_constraint": null, "bias_initializer": {"config": {}, "class_name": "Zeros"}, "activity_regularizer": null, "use_bias": false, "strides": [1, 1], "dilation_rate": [1, 1], "filters": 32, "activation": "linear", "kernel_size": [3, 3], "padding": "same", "bias_constraint": null, "trainable": false, "name": "conv2_block2_2_conv", "kernel_regularizer": null, "bias_regularizer": null, "kernel_initializer": {"config": {"distribution": "uniform", "scale": 1.0, "mode": "fan_avg", "seed": null}, "class_name": "VarianceScaling"}, "data_format": "channels_last"}, "class_name": "Conv2D", "inbound_nodes": [[["conv2_block2_1_relu", 0, 0, {}]]]}, {"name": "conv2_block2_concat", "config": {"name": "conv2_block2_concat", "axis": 3, "trainable": false}, "class_name": "Concatenate", "inbound_nodes": [[["conv2_block1_concat", 0, 0, {}], ["conv2_block2_2_conv", 0, 0, {}]]]}, {"name": "conv2_block3_0_bn", "config": {"gamma_initializer": {"config": {}, "class_name": "Ones"}, "beta_constraint": null, "momentum": 0.99, "gamma_constraint": null, "name": "conv2_block3_0_bn", "epsilon": 1.001e-05, "gamma_regularizer": null, "trainable": false, "beta_initializer": {"config": {}, "class_name": "Zeros"}, "beta_regularizer": null, "axis": 3, "moving_mean_initializer": {"config": {}, "class_name": "Zeros"}, "center": true, "moving_variance_initializer": {"config": {}, "class_name": "Ones"}, "scale": true}, "class_name": "BatchNormalization", "inbound_nodes": [[["conv2_block2_concat", 0, 0, {}]]]}, {"name": "conv2_block3_0_relu", "config": {"name": "conv2_block3_0_relu", "trainable": false, "activation": "relu"}, "class_name": "Activation", "inbound_nodes": [[["conv2_block3_0_bn", 0, 0, {}]]]}, {"name": "conv2_block3_1_conv", "config": {"kernel_constraint": null, "bias_initializer": {"config": {}, "class_name": "Zeros"}, "activity_regularizer": null, "use_bias": false, "strides": [1, 1], "dilation_rate": [1, 1], "filters": 128, "activation": "linear", "kernel_size": [1, 1], "padding": "valid", "bias_constraint": null, "trainable": false, "name": "conv2_block3_1_conv", "kernel_regularizer": null, "bias_regularizer": null, "kernel_initializer": {"config": {"distribution": "uniform", "scale": 1.0, "mode": "fan_avg", "seed": null}, "class_name": "VarianceScaling"}, "data_format": "channels_last"}, "class_name": "Conv2D", "inbound_nodes": [[["conv2_block3_0_relu", 0, 0, {}]]]}, {"name": "conv2_block3_1_bn", "config": {"gamma_initializer": {"config": {}, "class_name": "Ones"}, "beta_constraint": null, "momentum": 0.99, "gamma_constraint": null, "name": "conv2_block3_1_bn", "epsilon": 1.001e-05, "gamma_regularizer": null, "trainable": false, "beta_initializer": {"config": {}, "class_name": "Zeros"}, "beta_regularizer": null, "axis": 3, "moving_mean_initializer": {"config": {}, "class_name": "Zeros"}, "center": true, "moving_variance_initializer": {"config": {}, "class_name": "Ones"}, "scale": true}, "class_name": "BatchNormalization", "inbound_nodes": [[["conv2_block3_1_conv", 0, 0, {}]]]}, {"name": "conv2_block3_1_relu", "config": {"name": "conv2_block3_1_relu", "trainable": false, "activation": "relu"}, "class_name": "Activation", "inbound_nodes": [[["conv2_block3_1_bn", 0, 0, {}]]]}, {"name": "conv2_block3_2_conv", "config": {"kernel_constraint": null, "bias_initializer": {"config": {}, "class_name": "Zeros"}, "activity_regularizer": null, "use_bias": false, "strides": [1, 1], "dilation_rate": [1, 1], "filters": 32, "activation": "linear", "kernel_size": [3, 3], "padding": "same", "bias_constraint": null, "trainable": false, "name": "conv2_block3_2_conv", "kernel_regularizer": null, "bias_regularizer": null, "kernel_initializer": {"config": {"distribution": "uniform", "scale": 1.0, "mode": "fan_avg", "seed": null}, "class_name": "VarianceScaling"}, "data_format": "channels_last"}, "class_name": "Conv2D", "inbound_nodes": [[["conv2_block3_1_relu", 0, 0, {}]]]}, {"name": "conv2_block3_concat", "config": {"name": "conv2_block3_concat", "axis": 3, "trainable": false}, "class_name": "Concatenate", "inbound_nodes": [[["conv2_block2_concat", 0, 0, {}], ["conv2_block3_2_conv", 0, 0, {}]]]}, {"name": "conv2_block4_0_bn", "config": {"gamma_initializer": {"config": {}, "class_name": "Ones"}, "beta_constraint": null, "momentum": 0.99, "gamma_constraint": null, "name": "conv2_block4_0_bn", "epsilon": 1.001e-05, "gamma_regularizer": null, "trainable": false, "beta_initializer": {"config": {}, "class_name": "Zeros"}, "beta_regularizer": null, "axis": 3, "moving_mean_initializer": {"config": {}, "class_name": "Zeros"}, "center": true, "moving_variance_initializer": {"config": {}, "class_name": "Ones"}, "scale": true}, "class_name": "BatchNormalization", "inbound_nodes": [[["conv2_block3_concat", 0, 0, {}]]]}, {"name": "conv2_block4_0_relu", "config": {"name": "conv2_block4_0_relu", "trainable": false, "activation": "relu"}, "class_name": "Activation", "inbound_nodes": [[["conv2_block4_0_bn", 0, 0, {}]]]}, {"name": "conv2_block4_1_conv", "config": {"kernel_constraint": null, "bias_initializer": {"config": {}, "class_name": "Zeros"}, "activity_regularizer": null, "use_bias": false, "strides": [1, 1], "dilation_rate": [1, 1], "filters": 128, "activation": "linear", "kernel_size": [1, 1], "padding": "valid", "bias_constraint": null, "trainable": false, "name": "conv2_block4_1_conv", "kernel_regularizer": null, "bias_regularizer": null, "kernel_initializer": {"config": {"distribution": "uniform", "scale": 1.0, "mode": "fan_avg", "seed": null}, "class_name": "VarianceScaling"}, "data_format": "channels_last"}, "class_name": "Conv2D", "inbound_nodes": [[["conv2_block4_0_relu", 0, 0, {}]]]}, {"name": "conv2_block4_1_bn", "config": {"gamma_initializer": {"config": {}, "class_name": "Ones"}, "beta_constraint": null, "momentum": 0.99, "gamma_constraint": null, "name": "conv2_block4_1_bn", "epsilon": 1.001e-05, "gamma_regularizer": null, "trainable": false, "beta_initializer": {"config": {}, "class_name": "Zeros"}, "beta_regularizer": null, "axis": 3, "moving_mean_initializer": {"config": {}, "class_name": "Zeros"}, "center": true, "moving_variance_initializer": {"config": {}, "class_name": "Ones"}, "scale": true}, "class_name": "BatchNormalization", "inbound_nodes": [[["conv2_block4_1_conv", 0, 0, {}]]]}, {"name": "conv2_block4_1_relu", "config": {"name": "conv2_block4_1_relu", "trainable": false, "activation": "relu"}, "class_name": "Activation", "inbound_nodes": [[["conv2_block4_1_bn", 0, 0, {}]]]}, {"name": "conv2_block4_2_conv", "config": {"kernel_constraint": null, "bias_initializer": {"config": {}, "class_name": "Zeros"}, "activity_regularizer": null, "use_bias": false, "strides": [1, 1], "dilation_rate": [1, 1], "filters": 32, "activation": "linear", "kernel_size": [3, 3], "padding": "same", "bias_constraint": null, "trainable": false, "name": "conv2_block4_2_conv", "kernel_regularizer": null, "bias_regularizer": null, "kernel_initializer": {"config": {"distribution": "uniform", "scale": 1.0, "mode": "fan_avg", "seed": null}, "class_name": "VarianceScaling"}, "data_format": "channels_last"}, "class_name": "Conv2D", "inbound_nodes": [[["conv2_block4_1_relu", 0, 0, {}]]]}, {"name": "conv2_block4_concat", "config": {"name": "conv2_block4_concat", "axis": 3, "trainable": false}, "class_name": "Concatenate", "inbound_nodes": [[["conv2_block3_concat", 0, 0, {}], ["conv2_block4_2_conv", 0, 0, {}]]]}, {"name": "conv2_block5_0_bn", "config": {"gamma_initializer": {"config": {}, "class_name": "Ones"}, "beta_constraint": null, "momentum": 0.99, "gamma_constraint": null, "name": "conv2_block5_0_bn", "epsilon": 1.001e-05, "gamma_regularizer": null, "trainable": false, "beta_initializer": {"config": {}, "class_name": "Zeros"}, "beta_regularizer": null, "axis": 3, "moving_mean_initializer": {"config": {}, "class_name": "Zeros"}, "center": true, "moving_variance_initializer": {"config": {}, "class_name": "Ones"}, "scale": true}, "class_name": "BatchNormalization", "inbound_nodes": [[["conv2_block4_concat", 0, 0, {}]]]}, {"name": "conv2_block5_0_relu", "config": {"name": "conv2_block5_0_relu", "trainable": false, "activation": "relu"}, "class_name": "Activation", "inbound_nodes": [[["conv2_block5_0_bn", 0, 0, {}]]]}, {"name": "conv2_block5_1_conv", "config": {"kernel_constraint": null, "bias_initializer": {"config": {}, "class_name": "Zeros"}, "activity_regularizer": null, "use_bias": false, "strides": [1, 1], "dilation_rate": [1, 1], "filters": 128, "activation": "linear", "kernel_size": [1, 1], "padding": "valid", "bias_constraint": null, "trainable": false, "name": "conv2_block5_1_conv", "kernel_regularizer": null, "bias_regularizer": null, "kernel_initializer": {"config": {"distribution": "uniform", "scale": 1.0, "mode": "fan_avg", "seed": null}, "class_name": "VarianceScaling"}, "data_format": "channels_last"}, "class_name": "Conv2D", "inbound_nodes": [[["conv2_block5_0_relu", 0, 0, {}]]]}, {"name": "conv2_block5_1_bn", "config": {"gamma_initializer": {"config": {}, "class_name": "Ones"}, "beta_constraint": null, "momentum": 0.99, "gamma_constraint": null, "name": "conv2_block5_1_bn", "epsilon": 1.001e-05, "gamma_regularizer": null, "trainable": false, "beta_initializer": {"config": {}, "class_name": "Zeros"}, "beta_regularizer": null, "axis": 3, "moving_mean_initializer": {"config": {}, "class_name": "Zeros"}, "center": true, "moving_variance_initializer": {"config": {}, "class_name": "Ones"}, "scale": true}, "class_name": "BatchNormalization", "inbound_nodes": [[["conv2_block5_1_conv", 0, 0, {}]]]}, {"name": "conv2_block5_1_relu", "config": {"name": "conv2_block5_1_relu", "trainable": false, "activation": "relu"}, "class_name": "Activation", "inbound_nodes": [[["conv2_block5_1_bn", 0, 0, {}]]]}, {"name": "conv2_block5_2_conv", "config": {"kernel_constraint": null, "bias_initializer": {"config": {}, "class_name": "Zeros"}, "activity_regularizer": null, "use_bias": false, "strides": [1, 1], "dilation_rate": [1, 1], "filters": 32, "activation": "linear", "kernel_size": [3, 3], "padding": "same", "bias_constraint": null, "trainable": false, "name": "conv2_block5_2_conv", "kernel_regularizer": null, "bias_regularizer": null, "kernel_initializer": {"config": {"distribution": "uniform", "scale": 1.0, "mode": "fan_avg", "seed": null}, "class_name": "VarianceScaling"}, "data_format": "channels_last"}, "class_name": "Conv2D", "inbound_nodes": [[["conv2_block5_1_relu", 0, 0, {}]]]}, {"name": "conv2_block5_concat", "config": {"name": "conv2_block5_concat", "axis": 3, "trainable": false}, "class_name": "Concatenate", "inbound_nodes": [[["conv2_block4_concat", 0, 0, {}], ["conv2_block5_2_conv", 0, 0, {}]]]}, {"name": "conv2_block6_0_bn", "config": {"gamma_initializer": {"config": {}, "class_name": "Ones"}, "beta_constraint": null, "momentum": 0.99, "gamma_constraint": null, "name": "conv2_block6_0_bn", "epsilon": 1.001e-05, "gamma_regularizer": null, "trainable": false, "beta_initializer": {"config": {}, "class_name": "Zeros"}, "beta_regularizer": null, "axis": 3, "moving_mean_initializer": {"config": {}, "class_name": "Zeros"}, "center": true, "moving_variance_initializer": {"config": {}, "class_name": "Ones"}, "scale": true}, "class_name": "BatchNormalization", "inbound_nodes": [[["conv2_block5_concat", 0, 0, {}]]]}, {"name": "conv2_block6_0_relu", "config": {"name": "conv2_block6_0_relu", "trainable": false, "activation": "relu"}, "class_name": "Activation", "inbound_nodes": [[["conv2_block6_0_bn", 0, 0, {}]]]}, {"name": "conv2_block6_1_conv", "config": {"kernel_constraint": null, "bias_initializer": {"config": {}, "class_name": "Zeros"}, "activity_regularizer": null, "use_bias": false, "strides": [1, 1], "dilation_rate": [1, 1], "filters": 128, "activation": "linear", "kernel_size": [1, 1], "padding": "valid", "bias_constraint": null, "trainable": false, "name": "conv2_block6_1_conv", "kernel_regularizer": null, "bias_regularizer": null, "kernel_initializer": {"config": {"distribution": "uniform", "scale": 1.0, "mode": "fan_avg", "seed": null}, "class_name": "VarianceScaling"}, "data_format": "channels_last"}, "class_name": "Conv2D", "inbound_nodes": [[["conv2_block6_0_relu", 0, 0, {}]]]}, {"name": "conv2_block6_1_bn", "config": {"gamma_initializer": {"config": {}, "class_name": "Ones"}, "beta_constraint": null, "momentum": 0.99, "gamma_constraint": null, "name": "conv2_block6_1_bn", "epsilon": 1.001e-05, "gamma_regularizer": null, "trainable": false, "beta_initializer": {"config": {}, "class_name": "Zeros"}, "beta_regularizer": null, "axis": 3, "moving_mean_initializer": {"config": {}, "class_name": "Zeros"}, "center": true, "moving_variance_initializer": {"config": {}, "class_name": "Ones"}, "scale": true}, "class_name": "BatchNormalization", "inbound_nodes": [[["conv2_block6_1_conv", 0, 0, {}]]]}, {"name": "conv2_block6_1_relu", "config": {"name": "conv2_block6_1_relu", "trainable": false, "activation": "relu"}, "class_name": "Activation", "inbound_nodes": [[["conv2_block6_1_bn", 0, 0, {}]]]}, {"name": "conv2_block6_2_conv", "config": {"kernel_constraint": null, "bias_initializer": {"config": {}, "class_name": "Zeros"}, "activity_regularizer": null, "use_bias": false, "strides": [1, 1], "dilation_rate": [1, 1], "filters": 32, "activation": "linear", "kernel_size": [3, 3], "padding": "same", "bias_constraint": null, "trainable": false, "name": "conv2_block6_2_conv", "kernel_regularizer": null, "bias_regularizer": null, "kernel_initializer": {"config": {"distribution": "uniform", "scale": 1.0, "mode": "fan_avg", "seed": null}, "class_name": "VarianceScaling"}, "data_format": "channels_last"}, "class_name": "Conv2D", "inbound_nodes": [[["conv2_block6_1_relu", 0, 0, {}]]]}, {"name": "conv2_block6_concat", "config": {"name": "conv2_block6_concat", "axis": 3, "trainable": false}, "class_name": "Concatenate", "inbound_nodes": [[["conv2_block5_concat", 0, 0, {}], ["conv2_block6_2_conv", 0, 0, {}]]]}, {"name": "pool2_bn", "config": {"gamma_initializer": {"config": {}, "class_name": "Ones"}, "beta_constraint": null, "momentum": 0.99, "gamma_constraint": null, "name": "pool2_bn", "epsilon": 1.001e-05, "gamma_regularizer": null, "trainable": false, "beta_initializer": {"config": {}, "class_name": "Zeros"}, "beta_regularizer": null, "axis": 3, "moving_mean_initializer": {"config": {}, "class_name": "Zeros"}, "center": true, "moving_variance_initializer": {"config": {}, "class_name": "Ones"}, "scale": true}, "class_name": "BatchNormalization", "inbound_nodes": [[["conv2_block6_concat", 0, 0, {}]]]}, {"name": "pool2_relu", "config": {"name": "pool2_relu", "trainable": false, "activation": "relu"}, "class_name": "Activation", "inbound_nodes": [[["pool2_bn", 0, 0, {}]]]}, {"name": "pool2_conv", "config": {"kernel_constraint": null, "bias_initializer": {"config": {}, "class_name": "Zeros"}, "activity_regularizer": null, "use_bias": false, "strides": [1, 1], "dilation_rate": [1, 1], "filters": 128, "activation": "linear", "kernel_size": [1, 1], "padding": "valid", "bias_constraint": null, "trainable": false, "name": "pool2_conv", "kernel_regularizer": null, "bias_regularizer": null, "kernel_initializer": {"config": {"distribution": "uniform", "scale": 1.0, "mode": "fan_avg", "seed": null}, "class_name": "VarianceScaling"}, "data_format": "channels_last"}, "class_name": "Conv2D", "inbound_nodes": [[["pool2_relu", 0, 0, {}]]]}, {"name": "pool2_pool", "config": {"name": "pool2_pool", "padding": "valid", "pool_size": [2, 2], "strides": [2, 2], "data_format": "channels_last", "trainable": false}, "class_name": "AveragePooling2D", "inbound_nodes": [[["pool2_conv", 0, 0, {}]]]}, {"name": "conv3_block1_0_bn", "config": {"gamma_initializer": {"config": {}, "class_name": "Ones"}, "beta_constraint": null, "momentum": 0.99, "gamma_constraint": null, "name": "conv3_block1_0_bn", "epsilon": 1.001e-05, "gamma_regularizer": null, "trainable": false, "beta_initializer": {"config": {}, "class_name": "Zeros"}, "beta_regularizer": null, "axis": 3, "moving_mean_initializer": {"config": {}, "class_name": "Zeros"}, "center": true, "moving_variance_initializer": {"config": {}, "class_name": "Ones"}, "scale": true}, "class_name": "BatchNormalization", "inbound_nodes": [[["pool2_pool", 0, 0, {}]]]}, {"name": "conv3_block1_0_relu", "config": {"name": "conv3_block1_0_relu", "trainable": false, "activation": "relu"}, "class_name": "Activation", "inbound_nodes": [[["conv3_block1_0_bn", 0, 0, {}]]]}, {"name": "conv3_block1_1_conv", "config": {"kernel_constraint": null, "bias_initializer": {"config": {}, "class_name": "Zeros"}, "activity_regularizer": null, "use_bias": false, "strides": [1, 1], "dilation_rate": [1, 1], "filters": 128, "activation": "linear", "kernel_size": [1, 1], "padding": "valid", "bias_constraint": null, "trainable": false, "name": "conv3_block1_1_conv", "kernel_regularizer": null, "bias_regularizer": null, "kernel_initializer": {"config": {"distribution": "uniform", "scale": 1.0, "mode": "fan_avg", "seed": null}, "class_name": "VarianceScaling"}, "data_format": "channels_last"}, "class_name": "Conv2D", "inbound_nodes": [[["conv3_block1_0_relu", 0, 0, {}]]]}, {"name": "conv3_block1_1_bn", "config": {"gamma_initializer": {"config": {}, "class_name": "Ones"}, "beta_constraint": null, "momentum": 0.99, "gamma_constraint": null, "name": "conv3_block1_1_bn", "epsilon": 1.001e-05, "gamma_regularizer": null, "trainable": false, "beta_initializer": {"config": {}, "class_name": "Zeros"}, "beta_regularizer": null, "axis": 3, "moving_mean_initializer": {"config": {}, "class_name": "Zeros"}, "center": true, "moving_variance_initializer": {"config": {}, "class_name": "Ones"}, "scale": true}, "class_name": "BatchNormalization", "inbound_nodes": [[["conv3_block1_1_conv", 0, 0, {}]]]}, {"name": "conv3_block1_1_relu", "config": {"name": "conv3_block1_1_relu", "trainable": false, "activation": "relu"}, "class_name": "Activation", "inbound_nodes": [[["conv3_block1_1_bn", 0, 0, {}]]]}, {"name": "conv3_block1_2_conv", "config": {"kernel_constraint": null, "bias_initializer": {"config": {}, "class_name": "Zeros"}, "activity_regularizer": null, "use_bias": false, "strides": [1, 1], "dilation_rate": [1, 1], "filters": 32, "activation": "linear", "kernel_size": [3, 3], "padding": "same", "bias_constraint": null, "trainable": false, "name": "conv3_block1_2_conv", "kernel_regularizer": null, "bias_regularizer": null, "kernel_initializer": {"config": {"distribution": "uniform", "scale": 1.0, "mode": "fan_avg", "seed": null}, "class_name": "VarianceScaling"}, "data_format": "channels_last"}, "class_name": "Conv2D", "inbound_nodes": [[["conv3_block1_1_relu", 0, 0, {}]]]}, {"name": "conv3_block1_concat", "config": {"name": "conv3_block1_concat", "axis": 3, "trainable": false}, "class_name": "Concatenate", "inbound_nodes": [[["pool2_pool", 0, 0, {}], ["conv3_block1_2_conv", 0, 0, {}]]]}, {"name": "conv3_block2_0_bn", "config": {"gamma_initializer": {"config": {}, "class_name": "Ones"}, "beta_constraint": null, "momentum": 0.99, "gamma_constraint": null, "name": "conv3_block2_0_bn", "epsilon": 1.001e-05, "gamma_regularizer": null, "trainable": false, "beta_initializer": {"config": {}, "class_name": "Zeros"}, "beta_regularizer": null, "axis": 3, "moving_mean_initializer": {"config": {}, "class_name": "Zeros"}, "center": true, "moving_variance_initializer": {"config": {}, "class_name": "Ones"}, "scale": true}, "class_name": "BatchNormalization", "inbound_nodes": [[["conv3_block1_concat", 0, 0, {}]]]}, {"name": "conv3_block2_0_relu", "config": {"name": "conv3_block2_0_relu", "trainable": false, "activation": "relu"}, "class_name": "Activation", "inbound_nodes": [[["conv3_block2_0_bn", 0, 0, {}]]]}, {"name": "conv3_block2_1_conv", "config": {"kernel_constraint": null, "bias_initializer": {"config": {}, "class_name": "Zeros"}, "activity_regularizer": null, "use_bias": false, "strides": [1, 1], "dilation_rate": [1, 1], "filters": 128, "activation": "linear", "kernel_size": [1, 1], "padding": "valid", "bias_constraint": null, "trainable": false, "name": "conv3_block2_1_conv", "kernel_regularizer": null, "bias_regularizer": null, "kernel_initializer": {"config": {"distribution": "uniform", "scale": 1.0, "mode": "fan_avg", "seed": null}, "class_name": "VarianceScaling"}, "data_format": "channels_last"}, "class_name": "Conv2D", "inbound_nodes": [[["conv3_block2_0_relu", 0, 0, {}]]]}, {"name": "conv3_block2_1_bn", "config": {"gamma_initializer": {"config": {}, "class_name": "Ones"}, "beta_constraint": null, "momentum": 0.99, "gamma_constraint": null, "name": "conv3_block2_1_bn", "epsilon": 1.001e-05, "gamma_regularizer": null, "trainable": false, "beta_initializer": {"config": {}, "class_name": "Zeros"}, "beta_regularizer": null, "axis": 3, "moving_mean_initializer": {"config": {}, "class_name": "Zeros"}, "center": true, "moving_variance_initializer": {"config": {}, "class_name": "Ones"}, "scale": true}, "class_name": "BatchNormalization", "inbound_nodes": [[["conv3_block2_1_conv", 0, 0, {}]]]}, {"name": "conv3_block2_1_relu", "config": {"name": "conv3_block2_1_relu", "trainable": false, "activation": "relu"}, "class_name": "Activation", "inbound_nodes": [[["conv3_block2_1_bn", 0, 0, {}]]]}, {"name": "conv3_block2_2_conv", "config": {"kernel_constraint": null, "bias_initializer": {"config": {}, "class_name": "Zeros"}, "activity_regularizer": null, "use_bias": false, "strides": [1, 1], "dilation_rate": [1, 1], "filters": 32, "activation": "linear", "kernel_size": [3, 3], "padding": "same", "bias_constraint": null, "trainable": false, "name": "conv3_block2_2_conv", "kernel_regularizer": null, "bias_regularizer": null, "kernel_initializer": {"config": {"distribution": "uniform", "scale": 1.0, "mode": "fan_avg", "seed": null}, "class_name": "VarianceScaling"}, "data_format": "channels_last"}, "class_name": "Conv2D", "inbound_nodes": [[["conv3_block2_1_relu", 0, 0, {}]]]}, {"name": "conv3_block2_concat", "config": {"name": "conv3_block2_concat", "axis": 3, "trainable": false}, "class_name": "Concatenate", "inbound_nodes": [[["conv3_block1_concat", 0, 0, {}], ["conv3_block2_2_conv", 0, 0, {}]]]}, {"name": "conv3_block3_0_bn", "config": {"gamma_initializer": {"config": {}, "class_name": "Ones"}, "beta_constraint": null, "momentum": 0.99, "gamma_constraint": null, "name": "conv3_block3_0_bn", "epsilon": 1.001e-05, "gamma_regularizer": null, "trainable": false, "beta_initializer": {"config": {}, "class_name": "Zeros"}, "beta_regularizer": null, "axis": 3, "moving_mean_initializer": {"config": {}, "class_name": "Zeros"}, "center": true, "moving_variance_initializer": {"config": {}, "class_name": "Ones"}, "scale": true}, "class_name": "BatchNormalization", "inbound_nodes": [[["conv3_block2_concat", 0, 0, {}]]]}, {"name": "conv3_block3_0_relu", "config": {"name": "conv3_block3_0_relu", "trainable": false, "activation": "relu"}, "class_name": "Activation", "inbound_nodes": [[["conv3_block3_0_bn", 0, 0, {}]]]}, {"name": "conv3_block3_1_conv", "config": {"kernel_constraint": null, "bias_initializer": {"config": {}, "class_name": "Zeros"}, "activity_regularizer": null, "use_bias": false, "strides": [1, 1], "dilation_rate": [1, 1], "filters": 128, "activation": "linear", "kernel_size": [1, 1], "padding": "valid", "bias_constraint": null, "trainable": false, "name": "conv3_block3_1_conv", "kernel_regularizer": null, "bias_regularizer": null, "kernel_initializer": {"config": {"distribution": "uniform", "scale": 1.0, "mode": "fan_avg", "seed": null}, "class_name": "VarianceScaling"}, "data_format": "channels_last"}, "class_name": "Conv2D", "inbound_nodes": [[["conv3_block3_0_relu", 0, 0, {}]]]}, {"name": "conv3_block3_1_bn", "config": {"gamma_initializer": {"config": {}, "class_name": "Ones"}, "beta_constraint": null, "momentum": 0.99, "gamma_constraint": null, "name": "conv3_block3_1_bn", "epsilon": 1.001e-05, "gamma_regularizer": null, "trainable": false, "beta_initializer": {"config": {}, "class_name": "Zeros"}, "beta_regularizer": null, "axis": 3, "moving_mean_initializer": {"config": {}, "class_name": "Zeros"}, "center": true, "moving_variance_initializer": {"config": {}, "class_name": "Ones"}, "scale": true}, "class_name": "BatchNormalization", "inbound_nodes": [[["conv3_block3_1_conv", 0, 0, {}]]]}, {"name": "conv3_block3_1_relu", "config": {"name": "conv3_block3_1_relu", "trainable": false, "activation": "relu"}, "class_name": "Activation", "inbound_nodes": [[["conv3_block3_1_bn", 0, 0, {}]]]}, {"name": "conv3_block3_2_conv", "config": {"kernel_constraint": null, "bias_initializer": {"config": {}, "class_name": "Zeros"}, "activity_regularizer": null, "use_bias": false, "strides": [1, 1], "dilation_rate": [1, 1], "filters": 32, "activation": "linear", "kernel_size": [3, 3], "padding": "same", "bias_constraint": null, "trainable": false, "name": "conv3_block3_2_conv", "kernel_regularizer": null, "bias_regularizer": null, "kernel_initializer": {"config": {"distribution": "uniform", "scale": 1.0, "mode": "fan_avg", "seed": null}, "class_name": "VarianceScaling"}, "data_format": "channels_last"}, "class_name": "Conv2D", "inbound_nodes": [[["conv3_block3_1_relu", 0, 0, {}]]]}, {"name": "conv3_block3_concat", "config": {"name": "conv3_block3_concat", "axis": 3, "trainable": false}, "class_name": "Concatenate", "inbound_nodes": [[["conv3_block2_concat", 0, 0, {}], ["conv3_block3_2_conv", 0, 0, {}]]]}, {"name": "conv3_block4_0_bn", "config": {"gamma_initializer": {"config": {}, "class_name": "Ones"}, "beta_constraint": null, "momentum": 0.99, "gamma_constraint": null, "name": "conv3_block4_0_bn", "epsilon": 1.001e-05, "gamma_regularizer": null, "trainable": false, "beta_initializer": {"config": {}, "class_name": "Zeros"}, "beta_regularizer": null, "axis": 3, "moving_mean_initializer": {"config": {}, "class_name": "Zeros"}, "center": true, "moving_variance_initializer": {"config": {}, "class_name": "Ones"}, "scale": true}, "class_name": "BatchNormalization", "inbound_nodes": [[["conv3_block3_concat", 0, 0, {}]]]}, {"name": "conv3_block4_0_relu", "config": {"name": "conv3_block4_0_relu", "trainable": false, "activation": "relu"}, "class_name": "Activation", "inbound_nodes": [[["conv3_block4_0_bn", 0, 0, {}]]]}, {"name": "conv3_block4_1_conv", "config": {"kernel_constraint": null, "bias_initializer": {"config": {}, "class_name": "Zeros"}, "activity_regularizer": null, "use_bias": false, "strides": [1, 1], "dilation_rate": [1, 1], "filters": 128, "activation": "linear", "kernel_size": [1, 1], "padding": "valid", "bias_constraint": null, "trainable": false, "name": "conv3_block4_1_conv", "kernel_regularizer": null, "bias_regularizer": null, "kernel_initializer": {"config": {"distribution": "uniform", "scale": 1.0, "mode": "fan_avg", "seed": null}, "class_name": "VarianceScaling"}, "data_format": "channels_last"}, "class_name": "Conv2D", "inbound_nodes": [[["conv3_block4_0_relu", 0, 0, {}]]]}, {"name": "conv3_block4_1_bn", "config": {"gamma_initializer": {"config": {}, "class_name": "Ones"}, "beta_constraint": null, "momentum": 0.99, "gamma_constraint": null, "name": "conv3_block4_1_bn", "epsilon": 1.001e-05, "gamma_regularizer": null, "trainable": false, "beta_initializer": {"config": {}, "class_name": "Zeros"}, "beta_regularizer": null, "axis": 3, "moving_mean_initializer": {"config": {}, "class_name": "Zeros"}, "center": true, "moving_variance_initializer": {"config": {}, "class_name": "Ones"}, "scale": true}, "class_name": "BatchNormalization", "inbound_nodes": [[["conv3_block4_1_conv", 0, 0, {}]]]}, {"name": "conv3_block4_1_relu", "config": {"name": "conv3_block4_1_relu", "trainable": false, "activation": "relu"}, "class_name": "Activation", "inbound_nodes": [[["conv3_block4_1_bn", 0, 0, {}]]]}, {"name": "conv3_block4_2_conv", "config": {"kernel_constraint": null, "bias_initializer": {"config": {}, "class_name": "Zeros"}, "activity_regularizer": null, "use_bias": false, "strides": [1, 1], "dilation_rate": [1, 1], "filters": 32, "activation": "linear", "kernel_size": [3, 3], "padding": "same", "bias_constraint": null, "trainable": false, "name": "conv3_block4_2_conv", "kernel_regularizer": null, "bias_regularizer": null, "kernel_initializer": {"config": {"distribution": "uniform", "scale": 1.0, "mode": "fan_avg", "seed": null}, "class_name": "VarianceScaling"}, "data_format": "channels_last"}, "class_name": "Conv2D", "inbound_nodes": [[["conv3_block4_1_relu", 0, 0, {}]]]}, {"name": "conv3_block4_concat", "config": {"name": "conv3_block4_concat", "axis": 3, "trainable": false}, "class_name": "Concatenate", "inbound_nodes": [[["conv3_block3_concat", 0, 0, {}], ["conv3_block4_2_conv", 0, 0, {}]]]}, {"name": "conv3_block5_0_bn", "config": {"gamma_initializer": {"config": {}, "class_name": "Ones"}, "beta_constraint": null, "momentum": 0.99, "gamma_constraint": null, "name": "conv3_block5_0_bn", "epsilon": 1.001e-05, "gamma_regularizer": null, "trainable": false, "beta_initializer": {"config": {}, "class_name": "Zeros"}, "beta_regularizer": null, "axis": 3, "moving_mean_initializer": {"config": {}, "class_name": "Zeros"}, "center": true, "moving_variance_initializer": {"config": {}, "class_name": "Ones"}, "scale": true}, "class_name": "BatchNormalization", "inbound_nodes": [[["conv3_block4_concat", 0, 0, {}]]]}, {"name": "conv3_block5_0_relu", "config": {"name": "conv3_block5_0_relu", "trainable": false, "activation": "relu"}, "class_name": "Activation", "inbound_nodes": [[["conv3_block5_0_bn", 0, 0, {}]]]}, {"name": "conv3_block5_1_conv", "config": {"kernel_constraint": null, "bias_initializer": {"config": {}, "class_name": "Zeros"}, "activity_regularizer": null, "use_bias": false, "strides": [1, 1], "dilation_rate": [1, 1], "filters": 128, "activation": "linear", "kernel_size": [1, 1], "padding": "valid", "bias_constraint": null, "trainable": false, "name": "conv3_block5_1_conv", "kernel_regularizer": null, "bias_regularizer": null, "kernel_initializer": {"config": {"distribution": "uniform", "scale": 1.0, "mode": "fan_avg", "seed": null}, "class_name": "VarianceScaling"}, "data_format": "channels_last"}, "class_name": "Conv2D", "inbound_nodes": [[["conv3_block5_0_relu", 0, 0, {}]]]}, {"name": "conv3_block5_1_bn", "config": {"gamma_initializer": {"config": {}, "class_name": "Ones"}, "beta_constraint": null, "momentum": 0.99, "gamma_constraint": null, "name": "conv3_block5_1_bn", "epsilon": 1.001e-05, "gamma_regularizer": null, "trainable": false, "beta_initializer": {"config": {}, "class_name": "Zeros"}, "beta_regularizer": null, "axis": 3, "moving_mean_initializer": {"config": {}, "class_name": "Zeros"}, "center": true, "moving_variance_initializer": {"config": {}, "class_name": "Ones"}, "scale": true}, "class_name": "BatchNormalization", "inbound_nodes": [[["conv3_block5_1_conv", 0, 0, {}]]]}, {"name": "conv3_block5_1_relu", "config": {"name": "conv3_block5_1_relu", "trainable": false, "activation": "relu"}, "class_name": "Activation", "inbound_nodes": [[["conv3_block5_1_bn", 0, 0, {}]]]}, {"name": "conv3_block5_2_conv", "config": {"kernel_constraint": null, "bias_initializer": {"config": {}, "class_name": "Zeros"}, "activity_regularizer": null, "use_bias": false, "strides": [1, 1], "dilation_rate": [1, 1], "filters": 32, "activation": "linear", "kernel_size": [3, 3], "padding": "same", "bias_constraint": null, "trainable": false, "name": "conv3_block5_2_conv", "kernel_regularizer": null, "bias_regularizer": null, "kernel_initializer": {"config": {"distribution": "uniform", "scale": 1.0, "mode": "fan_avg", "seed": null}, "class_name": "VarianceScaling"}, "data_format": "channels_last"}, "class_name": "Conv2D", "inbound_nodes": [[["conv3_block5_1_relu", 0, 0, {}]]]}, {"name": "conv3_block5_concat", "config": {"name": "conv3_block5_concat", "axis": 3, "trainable": false}, "class_name": "Concatenate", "inbound_nodes": [[["conv3_block4_concat", 0, 0, {}], ["conv3_block5_2_conv", 0, 0, {}]]]}, {"name": "conv3_block6_0_bn", "config": {"gamma_initializer": {"config": {}, "class_name": "Ones"}, "beta_constraint": null, "momentum": 0.99, "gamma_constraint": null, "name": "conv3_block6_0_bn", "epsilon": 1.001e-05, "gamma_regularizer": null, "trainable": false, "beta_initializer": {"config": {}, "class_name": "Zeros"}, "beta_regularizer": null, "axis": 3, "moving_mean_initializer": {"config": {}, "class_name": "Zeros"}, "center": true, "moving_variance_initializer": {"config": {}, "class_name": "Ones"}, "scale": true}, "class_name": "BatchNormalization", "inbound_nodes": [[["conv3_block5_concat", 0, 0, {}]]]}, {"name": "conv3_block6_0_relu", "config": {"name": "conv3_block6_0_relu", "trainable": false, "activation": "relu"}, "class_name": "Activation", "inbound_nodes": [[["conv3_block6_0_bn", 0, 0, {}]]]}, {"name": "conv3_block6_1_conv", "config": {"kernel_constraint": null, "bias_initializer": {"config": {}, "class_name": "Zeros"}, "activity_regularizer": null, "use_bias": false, "strides": [1, 1], "dilation_rate": [1, 1], "filters": 128, "activation": "linear", "kernel_size": [1, 1], "padding": "valid", "bias_constraint": null, "trainable": false, "name": "conv3_block6_1_conv", "kernel_regularizer": null, "bias_regularizer": null, "kernel_initializer": {"config": {"distribution": "uniform", "scale": 1.0, "mode": "fan_avg", "seed": null}, "class_name": "VarianceScaling"}, "data_format": "channels_last"}, "class_name": "Conv2D", "inbound_nodes": [[["conv3_block6_0_relu", 0, 0, {}]]]}, {"name": "conv3_block6_1_bn", "config": {"gamma_initializer": {"config": {}, "class_name": "Ones"}, "beta_constraint": null, "momentum": 0.99, "gamma_constraint": null, "name": "conv3_block6_1_bn", "epsilon": 1.001e-05, "gamma_regularizer": null, "trainable": false, "beta_initializer": {"config": {}, "class_name": "Zeros"}, "beta_regularizer": null, "axis": 3, "moving_mean_initializer": {"config": {}, "class_name": "Zeros"}, "center": true, "moving_variance_initializer": {"config": {}, "class_name": "Ones"}, "scale": true}, "class_name": "BatchNormalization", "inbound_nodes": [[["conv3_block6_1_conv", 0, 0, {}]]]}, {"name": "conv3_block6_1_relu", "config": {"name": "conv3_block6_1_relu", "trainable": false, "activation": "relu"}, "class_name": "Activation", "inbound_nodes": [[["conv3_block6_1_bn", 0, 0, {}]]]}, {"name": "conv3_block6_2_conv", "config": {"kernel_constraint": null, "bias_initializer": {"config": {}, "class_name": "Zeros"}, "activity_regularizer": null, "use_bias": false, "strides": [1, 1], "dilation_rate": [1, 1], "filters": 32, "activation": "linear", "kernel_size": [3, 3], "padding": "same", "bias_constraint": null, "trainable": false, "name": "conv3_block6_2_conv", "kernel_regularizer": null, "bias_regularizer": null, "kernel_initializer": {"config": {"distribution": "uniform", "scale": 1.0, "mode": "fan_avg", "seed": null}, "class_name": "VarianceScaling"}, "data_format": "channels_last"}, "class_name": "Conv2D", "inbound_nodes": [[["conv3_block6_1_relu", 0, 0, {}]]]}, {"name": "conv3_block6_concat", "config": {"name": "conv3_block6_concat", "axis": 3, "trainable": false}, "class_name": "Concatenate", "inbound_nodes": [[["conv3_block5_concat", 0, 0, {}], ["conv3_block6_2_conv", 0, 0, {}]]]}, {"name": "conv3_block7_0_bn", "config": {"gamma_initializer": {"config": {}, "class_name": "Ones"}, "beta_constraint": null, "momentum": 0.99, "gamma_constraint": null, "name": "conv3_block7_0_bn", "epsilon": 1.001e-05, "gamma_regularizer": null, "trainable": false, "beta_initializer": {"config": {}, "class_name": "Zeros"}, "beta_regularizer": null, "axis": 3, "moving_mean_initializer": {"config": {}, "class_name": "Zeros"}, "center": true, "moving_variance_initializer": {"config": {}, "class_name": "Ones"}, "scale": true}, "class_name": "BatchNormalization", "inbound_nodes": [[["conv3_block6_concat", 0, 0, {}]]]}, {"name": "conv3_block7_0_relu", "config": {"name": "conv3_block7_0_relu", "trainable": false, "activation": "relu"}, "class_name": "Activation", "inbound_nodes": [[["conv3_block7_0_bn", 0, 0, {}]]]}, {"name": "conv3_block7_1_conv", "config": {"kernel_constraint": null, "bias_initializer": {"config": {}, "class_name": "Zeros"}, "activity_regularizer": null, "use_bias": false, "strides": [1, 1], "dilation_rate": [1, 1], "filters": 128, "activation": "linear", "kernel_size": [1, 1], "padding": "valid", "bias_constraint": null, "trainable": false, "name": "conv3_block7_1_conv", "kernel_regularizer": null, "bias_regularizer": null, "kernel_initializer": {"config": {"distribution": "uniform", "scale": 1.0, "mode": "fan_avg", "seed": null}, "class_name": "VarianceScaling"}, "data_format": "channels_last"}, "class_name": "Conv2D", "inbound_nodes": [[["conv3_block7_0_relu", 0, 0, {}]]]}, {"name": "conv3_block7_1_bn", "config": {"gamma_initializer": {"config": {}, "class_name": "Ones"}, "beta_constraint": null, "momentum": 0.99, "gamma_constraint": null, "name": "conv3_block7_1_bn", "epsilon": 1.001e-05, "gamma_regularizer": null, "trainable": false, "beta_initializer": {"config": {}, "class_name": "Zeros"}, "beta_regularizer": null, "axis": 3, "moving_mean_initializer": {"config": {}, "class_name": "Zeros"}, "center": true, "moving_variance_initializer": {"config": {}, "class_name": "Ones"}, "scale": true}, "class_name": "BatchNormalization", "inbound_nodes": [[["conv3_block7_1_conv", 0, 0, {}]]]}, {"name": "conv3_block7_1_relu", "config": {"name": "conv3_block7_1_relu", "trainable": false, "activation": "relu"}, "class_name": "Activation", "inbound_nodes": [[["conv3_block7_1_bn", 0, 0, {}]]]}, {"name": "conv3_block7_2_conv", "config": {"kernel_constraint": null, "bias_initializer": {"config": {}, "class_name": "Zeros"}, "activity_regularizer": null, "use_bias": false, "strides": [1, 1], "dilation_rate": [1, 1], "filters": 32, "activation": "linear", "kernel_size": [3, 3], "padding": "same", "bias_constraint": null, "trainable": false, "name": "conv3_block7_2_conv", "kernel_regularizer": null, "bias_regularizer": null, "kernel_initializer": {"config": {"distribution": "uniform", "scale": 1.0, "mode": "fan_avg", "seed": null}, "class_name": "VarianceScaling"}, "data_format": "channels_last"}, "class_name": "Conv2D", "inbound_nodes": [[["conv3_block7_1_relu", 0, 0, {}]]]}, {"name": "conv3_block7_concat", "config": {"name": "conv3_block7_concat", "axis": 3, "trainable": false}, "class_name": "Concatenate", "inbound_nodes": [[["conv3_block6_concat", 0, 0, {}], ["conv3_block7_2_conv", 0, 0, {}]]]}, {"name": "conv3_block8_0_bn", "config": {"gamma_initializer": {"config": {}, "class_name": "Ones"}, "beta_constraint": null, "momentum": 0.99, "gamma_constraint": null, "name": "conv3_block8_0_bn", "epsilon": 1.001e-05, "gamma_regularizer": null, "trainable": false, "beta_initializer": {"config": {}, "class_name": "Zeros"}, "beta_regularizer": null, "axis": 3, "moving_mean_initializer": {"config": {}, "class_name": "Zeros"}, "center": true, "moving_variance_initializer": {"config": {}, "class_name": "Ones"}, "scale": true}, "class_name": "BatchNormalization", "inbound_nodes": [[["conv3_block7_concat", 0, 0, {}]]]}, {"name": "conv3_block8_0_relu", "config": {"name": "conv3_block8_0_relu", "trainable": false, "activation": "relu"}, "class_name": "Activation", "inbound_nodes": [[["conv3_block8_0_bn", 0, 0, {}]]]}, {"name": "conv3_block8_1_conv", "config": {"kernel_constraint": null, "bias_initializer": {"config": {}, "class_name": "Zeros"}, "activity_regularizer": null, "use_bias": false, "strides": [1, 1], "dilation_rate": [1, 1], "filters": 128, "activation": "linear", "kernel_size": [1, 1], "padding": "valid", "bias_constraint": null, "trainable": false, "name": "conv3_block8_1_conv", "kernel_regularizer": null, "bias_regularizer": null, "kernel_initializer": {"config": {"distribution": "uniform", "scale": 1.0, "mode": "fan_avg", "seed": null}, "class_name": "VarianceScaling"}, "data_format": "channels_last"}, "class_name": "Conv2D", "inbound_nodes": [[["conv3_block8_0_relu", 0, 0, {}]]]}, {"name": "conv3_block8_1_bn", "config": {"gamma_initializer": {"config": {}, "class_name": "Ones"}, "beta_constraint": null, "momentum": 0.99, "gamma_constraint": null, "name": "conv3_block8_1_bn", "epsilon": 1.001e-05, "gamma_regularizer": null, "trainable": false, "beta_initializer": {"config": {}, "class_name": "Zeros"}, "beta_regularizer": null, "axis": 3, "moving_mean_initializer": {"config": {}, "class_name": "Zeros"}, "center": true, "moving_variance_initializer": {"config": {}, "class_name": "Ones"}, "scale": true}, "class_name": "BatchNormalization", "inbound_nodes": [[["conv3_block8_1_conv", 0, 0, {}]]]}, {"name": "conv3_block8_1_relu", "config": {"name": "conv3_block8_1_relu", "trainable": false, "activation": "relu"}, "class_name": "Activation", "inbound_nodes": [[["conv3_block8_1_bn", 0, 0, {}]]]}, {"name": "conv3_block8_2_conv", "config": {"kernel_constraint": null, "bias_initializer": {"config": {}, "class_name": "Zeros"}, "activity_regularizer": null, "use_bias": false, "strides": [1, 1], "dilation_rate": [1, 1], "filters": 32, "activation": "linear", "kernel_size": [3, 3], "padding": "same", "bias_constraint": null, "trainable": false, "name": "conv3_block8_2_conv", "kernel_regularizer": null, "bias_regularizer": null, "kernel_initializer": {"config": {"distribution": "uniform", "scale": 1.0, "mode": "fan_avg", "seed": null}, "class_name": "VarianceScaling"}, "data_format": "channels_last"}, "class_name": "Conv2D", "inbound_nodes": [[["conv3_block8_1_relu", 0, 0, {}]]]}, {"name": "conv3_block8_concat", "config": {"name": "conv3_block8_concat", "axis": 3, "trainable": false}, "class_name": "Concatenate", "inbound_nodes": [[["conv3_block7_concat", 0, 0, {}], ["conv3_block8_2_conv", 0, 0, {}]]]}, {"name": "conv3_block9_0_bn", "config": {"gamma_initializer": {"config": {}, "class_name": "Ones"}, "beta_constraint": null, "momentum": 0.99, "gamma_constraint": null, "name": "conv3_block9_0_bn", "epsilon": 1.001e-05, "gamma_regularizer": null, "trainable": false, "beta_initializer": {"config": {}, "class_name": "Zeros"}, "beta_regularizer": null, "axis": 3, "moving_mean_initializer": {"config": {}, "class_name": "Zeros"}, "center": true, "moving_variance_initializer": {"config": {}, "class_name": "Ones"}, "scale": true}, "class_name": "BatchNormalization", "inbound_nodes": [[["conv3_block8_concat", 0, 0, {}]]]}, {"name": "conv3_block9_0_relu", "config": {"name": "conv3_block9_0_relu", "trainable": false, "activation": "relu"}, "class_name": "Activation", "inbound_nodes": [[["conv3_block9_0_bn", 0, 0, {}]]]}, {"name": "conv3_block9_1_conv", "config": {"kernel_constraint": null, "bias_initializer": {"config": {}, "class_name": "Zeros"}, "activity_regularizer": null, "use_bias": false, "strides": [1, 1], "dilation_rate": [1, 1], "filters": 128, "activation": "linear", "kernel_size": [1, 1], "padding": "valid", "bias_constraint": null, "trainable": false, "name": "conv3_block9_1_conv", "kernel_regularizer": null, "bias_regularizer": null, "kernel_initializer": {"config": {"distribution": "uniform", "scale": 1.0, "mode": "fan_avg", "seed": null}, "class_name": "VarianceScaling"}, "data_format": "channels_last"}, "class_name": "Conv2D", "inbound_nodes": [[["conv3_block9_0_relu", 0, 0, {}]]]}, {"name": "conv3_block9_1_bn", "config": {"gamma_initializer": {"config": {}, "class_name": "Ones"}, "beta_constraint": null, "momentum": 0.99, "gamma_constraint": null, "name": "conv3_block9_1_bn", "epsilon": 1.001e-05, "gamma_regularizer": null, "trainable": false, "beta_initializer": {"config": {}, "class_name": "Zeros"}, "beta_regularizer": null, "axis": 3, "moving_mean_initializer": {"config": {}, "class_name": "Zeros"}, "center": true, "moving_variance_initializer": {"config": {}, "class_name": "Ones"}, "scale": true}, "class_name": "BatchNormalization", "inbound_nodes": [[["conv3_block9_1_conv", 0, 0, {}]]]}, {"name": "conv3_block9_1_relu", "config": {"name": "conv3_block9_1_relu", "trainable": false, "activation": "relu"}, "class_name": "Activation", "inbound_nodes": [[["conv3_block9_1_bn", 0, 0, {}]]]}, {"name": "conv3_block9_2_conv", "config": {"kernel_constraint": null, "bias_initializer": {"config": {}, "class_name": "Zeros"}, "activity_regularizer": null, "use_bias": false, "strides": [1, 1], "dilation_rate": [1, 1], "filters": 32, "activation": "linear", "kernel_size": [3, 3], "padding": "same", "bias_constraint": null, "trainable": false, "name": "conv3_block9_2_conv", "kernel_regularizer": null, "bias_regularizer": null, "kernel_initializer": {"config": {"distribution": "uniform", "scale": 1.0, "mode": "fan_avg", "seed": null}, "class_name": "VarianceScaling"}, "data_format": "channels_last"}, "class_name": "Conv2D", "inbound_nodes": [[["conv3_block9_1_relu", 0, 0, {}]]]}, {"name": "conv3_block9_concat", "config": {"name": "conv3_block9_concat", "axis": 3, "trainable": false}, "class_name": "Concatenate", "inbound_nodes": [[["conv3_block8_concat", 0, 0, {}], ["conv3_block9_2_conv", 0, 0, {}]]]}, {"name": "conv3_block10_0_bn", "config": {"gamma_initializer": {"config": {}, "class_name": "Ones"}, "beta_constraint": null, "momentum": 0.99, "gamma_constraint": null, "name": "conv3_block10_0_bn", "epsilon": 1.001e-05, "gamma_regularizer": null, "trainable": false, "beta_initializer": {"config": {}, "class_name": "Zeros"}, "beta_regularizer": null, "axis": 3, "moving_mean_initializer": {"config": {}, "class_name": "Zeros"}, "center": true, "moving_variance_initializer": {"config": {}, "class_name": "Ones"}, "scale": true}, "class_name": "BatchNormalization", "inbound_nodes": [[["conv3_block9_concat", 0, 0, {}]]]}, {"name": "conv3_block10_0_relu", "config": {"name": "conv3_block10_0_relu", "trainable": false, "activation": "relu"}, "class_name": "Activation", "inbound_nodes": [[["conv3_block10_0_bn", 0, 0, {}]]]}, {"name": "conv3_block10_1_conv", "config": {"kernel_constraint": null, "bias_initializer": {"config": {}, "class_name": "Zeros"}, "activity_regularizer": null, "use_bias": false, "strides": [1, 1], "dilation_rate": [1, 1], "filters": 128, "activation": "linear", "kernel_size": [1, 1], "padding": "valid", "bias_constraint": null, "trainable": false, "name": "conv3_block10_1_conv", "kernel_regularizer": null, "bias_regularizer": null, "kernel_initializer": {"config": {"distribution": "uniform", "scale": 1.0, "mode": "fan_avg", "seed": null}, "class_name": "VarianceScaling"}, "data_format": "channels_last"}, "class_name": "Conv2D", "inbound_nodes": [[["conv3_block10_0_relu", 0, 0, {}]]]}, {"name": "conv3_block10_1_bn", "config": {"gamma_initializer": {"config": {}, "class_name": "Ones"}, "beta_constraint": null, "momentum": 0.99, "gamma_constraint": null, "name": "conv3_block10_1_bn", "epsilon": 1.001e-05, "gamma_regularizer": null, "trainable": false, "beta_initializer": {"config": {}, "class_name": "Zeros"}, "beta_regularizer": null, "axis": 3, "moving_mean_initializer": {"config": {}, "class_name": "Zeros"}, "center": true, "moving_variance_initializer": {"config": {}, "class_name": "Ones"}, "scale": true}, "class_name": "BatchNormalization", "inbound_nodes": [[["conv3_block10_1_conv", 0, 0, {}]]]}, {"name": "conv3_block10_1_relu", "config": {"name": "conv3_block10_1_relu", "trainable": false, "activation": "relu"}, "class_name": "Activation", "inbound_nodes": [[["conv3_block10_1_bn", 0, 0, {}]]]}, {"name": "conv3_block10_2_conv", "config": {"kernel_constraint": null, "bias_initializer": {"config": {}, "class_name": "Zeros"}, "activity_regularizer": null, "use_bias": false, "strides": [1, 1], "dilation_rate": [1, 1], "filters": 32, "activation": "linear", "kernel_size": [3, 3], "padding": "same", "bias_constraint": null, "trainable": false, "name": "conv3_block10_2_conv", "kernel_regularizer": null, "bias_regularizer": null, "kernel_initializer": {"config": {"distribution": "uniform", "scale": 1.0, "mode": "fan_avg", "seed": null}, "class_name": "VarianceScaling"}, "data_format": "channels_last"}, "class_name": "Conv2D", "inbound_nodes": [[["conv3_block10_1_relu", 0, 0, {}]]]}, {"name": "conv3_block10_concat", "config": {"name": "conv3_block10_concat", "axis": 3, "trainable": false}, "class_name": "Concatenate", "inbound_nodes": [[["conv3_block9_concat", 0, 0, {}], ["conv3_block10_2_conv", 0, 0, {}]]]}, {"name": "conv3_block11_0_bn", "config": {"gamma_initializer": {"config": {}, "class_name": "Ones"}, "beta_constraint": null, "momentum": 0.99, "gamma_constraint": null, "name": "conv3_block11_0_bn", "epsilon": 1.001e-05, "gamma_regularizer": null, "trainable": false, "beta_initializer": {"config": {}, "class_name": "Zeros"}, "beta_regularizer": null, "axis": 3, "moving_mean_initializer": {"config": {}, "class_name": "Zeros"}, "center": true, "moving_variance_initializer": {"config": {}, "class_name": "Ones"}, "scale": true}, "class_name": "BatchNormalization", "inbound_nodes": [[["conv3_block10_concat", 0, 0, {}]]]}, {"name": "conv3_block11_0_relu", "config": {"name": "conv3_block11_0_relu", "trainable": false, "activation": "relu"}, "class_name": "Activation", "inbound_nodes": [[["conv3_block11_0_bn", 0, 0, {}]]]}, {"name": "conv3_block11_1_conv", "config": {"kernel_constraint": null, "bias_initializer": {"config": {}, "class_name": "Zeros"}, "activity_regularizer": null, "use_bias": false, "strides": [1, 1], "dilation_rate": [1, 1], "filters": 128, "activation": "linear", "kernel_size": [1, 1], "padding": "valid", "bias_constraint": null, "trainable": false, "name": "conv3_block11_1_conv", "kernel_regularizer": null, "bias_regularizer": null, "kernel_initializer": {"config": {"distribution": "uniform", "scale": 1.0, "mode": "fan_avg", "seed": null}, "class_name": "VarianceScaling"}, "data_format": "channels_last"}, "class_name": "Conv2D", "inbound_nodes": [[["conv3_block11_0_relu", 0, 0, {}]]]}, {"name": "conv3_block11_1_bn", "config": {"gamma_initializer": {"config": {}, "class_name": "Ones"}, "beta_constraint": null, "momentum": 0.99, "gamma_constraint": null, "name": "conv3_block11_1_bn", "epsilon": 1.001e-05, "gamma_regularizer": null, "trainable": false, "beta_initializer": {"config": {}, "class_name": "Zeros"}, "beta_regularizer": null, "axis": 3, "moving_mean_initializer": {"config": {}, "class_name": "Zeros"}, "center": true, "moving_variance_initializer": {"config": {}, "class_name": "Ones"}, "scale": true}, "class_name": "BatchNormalization", "inbound_nodes": [[["conv3_block11_1_conv", 0, 0, {}]]]}, {"name": "conv3_block11_1_relu", "config": {"name": "conv3_block11_1_relu", "trainable": false, "activation": "relu"}, "class_name": "Activation", "inbound_nodes": [[["conv3_block11_1_bn", 0, 0, {}]]]}, {"name": "conv3_block11_2_conv", "config": {"kernel_constraint": null, "bias_initializer": {"config": {}, "class_name": "Zeros"}, "activity_regularizer": null, "use_bias": false, "strides": [1, 1], "dilation_rate": [1, 1], "filters": 32, "activation": "linear", "kernel_size": [3, 3], "padding": "same", "bias_constraint": null, "trainable": false, "name": "conv3_block11_2_conv", "kernel_regularizer": null, "bias_regularizer": null, "kernel_initializer": {"config": {"distribution": "uniform", "scale": 1.0, "mode": "fan_avg", "seed": null}, "class_name": "VarianceScaling"}, "data_format": "channels_last"}, "class_name": "Conv2D", "inbound_nodes": [[["conv3_block11_1_relu", 0, 0, {}]]]}, {"name": "conv3_block11_concat", "config": {"name": "conv3_block11_concat", "axis": 3, "trainable": false}, "class_name": "Concatenate", "inbound_nodes": [[["conv3_block10_concat", 0, 0, {}], ["conv3_block11_2_conv", 0, 0, {}]]]}, {"name": "conv3_block12_0_bn", "config": {"gamma_initializer": {"config": {}, "class_name": "Ones"}, "beta_constraint": null, "momentum": 0.99, "gamma_constraint": null, "name": "conv3_block12_0_bn", "epsilon": 1.001e-05, "gamma_regularizer": null, "trainable": false, "beta_initializer": {"config": {}, "class_name": "Zeros"}, "beta_regularizer": null, "axis": 3, "moving_mean_initializer": {"config": {}, "class_name": "Zeros"}, "center": true, "moving_variance_initializer": {"config": {}, "class_name": "Ones"}, "scale": true}, "class_name": "BatchNormalization", "inbound_nodes": [[["conv3_block11_concat", 0, 0, {}]]]}, {"name": "conv3_block12_0_relu", "config": {"name": "conv3_block12_0_relu", "trainable": false, "activation": "relu"}, "class_name": "Activation", "inbound_nodes": [[["conv3_block12_0_bn", 0, 0, {}]]]}, {"name": "conv3_block12_1_conv", "config": {"kernel_constraint": null, "bias_initializer": {"config": {}, "class_name": "Zeros"}, "activity_regularizer": null, "use_bias": false, "strides": [1, 1], "dilation_rate": [1, 1], "filters": 128, "activation": "linear", "kernel_size": [1, 1], "padding": "valid", "bias_constraint": null, "trainable": false, "name": "conv3_block12_1_conv", "kernel_regularizer": null, "bias_regularizer": null, "kernel_initializer": {"config": {"distribution": "uniform", "scale": 1.0, "mode": "fan_avg", "seed": null}, "class_name": "VarianceScaling"}, "data_format": "channels_last"}, "class_name": "Conv2D", "inbound_nodes": [[["conv3_block12_0_relu", 0, 0, {}]]]}, {"name": "conv3_block12_1_bn", "config": {"gamma_initializer": {"config": {}, "class_name": "Ones"}, "beta_constraint": null, "momentum": 0.99, "gamma_constraint": null, "name": "conv3_block12_1_bn", "epsilon": 1.001e-05, "gamma_regularizer": null, "trainable": false, "beta_initializer": {"config": {}, "class_name": "Zeros"}, "beta_regularizer": null, "axis": 3, "moving_mean_initializer": {"config": {}, "class_name": "Zeros"}, "center": true, "moving_variance_initializer": {"config": {}, "class_name": "Ones"}, "scale": true}, "class_name": "BatchNormalization", "inbound_nodes": [[["conv3_block12_1_conv", 0, 0, {}]]]}, {"name": "conv3_block12_1_relu", "config": {"name": "conv3_block12_1_relu", "trainable": false, "activation": "relu"}, "class_name": "Activation", "inbound_nodes": [[["conv3_block12_1_bn", 0, 0, {}]]]}, {"name": "conv3_block12_2_conv", "config": {"kernel_constraint": null, "bias_initializer": {"config": {}, "class_name": "Zeros"}, "activity_regularizer": null, "use_bias": false, "strides": [1, 1], "dilation_rate": [1, 1], "filters": 32, "activation": "linear", "kernel_size": [3, 3], "padding": "same", "bias_constraint": null, "trainable": false, "name": "conv3_block12_2_conv", "kernel_regularizer": null, "bias_regularizer": null, "kernel_initializer": {"config": {"distribution": "uniform", "scale": 1.0, "mode": "fan_avg", "seed": null}, "class_name": "VarianceScaling"}, "data_format": "channels_last"}, "class_name": "Conv2D", "inbound_nodes": [[["conv3_block12_1_relu", 0, 0, {}]]]}, {"name": "conv3_block12_concat", "config": {"name": "conv3_block12_concat", "axis": 3, "trainable": false}, "class_name": "Concatenate", "inbound_nodes": [[["conv3_block11_concat", 0, 0, {}], ["conv3_block12_2_conv", 0, 0, {}]]]}, {"name": "pool3_bn", "config": {"gamma_initializer": {"config": {}, "class_name": "Ones"}, "beta_constraint": null, "momentum": 0.99, "gamma_constraint": null, "name": "pool3_bn", "epsilon": 1.001e-05, "gamma_regularizer": null, "trainable": false, "beta_initializer": {"config": {}, "class_name": "Zeros"}, "beta_regularizer": null, "axis": 3, "moving_mean_initializer": {"config": {}, "class_name": "Zeros"}, "center": true, "moving_variance_initializer": {"config": {}, "class_name": "Ones"}, "scale": true}, "class_name": "BatchNormalization", "inbound_nodes": [[["conv3_block12_concat", 0, 0, {}]]]}, {"name": "pool3_relu", "config": {"name": "pool3_relu", "trainable": false, "activation": "relu"}, "class_name": "Activation", "inbound_nodes": [[["pool3_bn", 0, 0, {}]]]}, {"name": "pool3_conv", "config": {"kernel_constraint": null, "bias_initializer": {"config": {}, "class_name": "Zeros"}, "activity_regularizer": null, "use_bias": false, "strides": [1, 1], "dilation_rate": [1, 1], "filters": 256, "activation": "linear", "kernel_size": [1, 1], "padding": "valid", "bias_constraint": null, "trainable": false, "name": "pool3_conv", "kernel_regularizer": null, "bias_regularizer": null, "kernel_initializer": {"config": {"distribution": "uniform", "scale": 1.0, "mode": "fan_avg", "seed": null}, "class_name": "VarianceScaling"}, "data_format": "channels_last"}, "class_name": "Conv2D", "inbound_nodes": [[["pool3_relu", 0, 0, {}]]]}, {"name": "pool3_pool", "config": {"name": "pool3_pool", "padding": "valid", "pool_size": [2, 2], "strides": [2, 2], "data_format": "channels_last", "trainable": false}, "class_name": "AveragePooling2D", "inbound_nodes": [[["pool3_conv", 0, 0, {}]]]}, {"name": "conv4_block1_0_bn", "config": {"gamma_initializer": {"config": {}, "class_name": "Ones"}, "beta_constraint": null, "momentum": 0.99, "gamma_constraint": null, "name": "conv4_block1_0_bn", "epsilon": 1.001e-05, "gamma_regularizer": null, "trainable": false, "beta_initializer": {"config": {}, "class_name": "Zeros"}, "beta_regularizer": null, "axis": 3, "moving_mean_initializer": {"config": {}, "class_name": "Zeros"}, "center": true, "moving_variance_initializer": {"config": {}, "class_name": "Ones"}, "scale": true}, "class_name": "BatchNormalization", "inbound_nodes": [[["pool3_pool", 0, 0, {}]]]}, {"name": "conv4_block1_0_relu", "config": {"name": "conv4_block1_0_relu", "trainable": false, "activation": "relu"}, "class_name": "Activation", "inbound_nodes": [[["conv4_block1_0_bn", 0, 0, {}]]]}, {"name": "conv4_block1_1_conv", "config": {"kernel_constraint": null, "bias_initializer": {"config": {}, "class_name": "Zeros"}, "activity_regularizer": null, "use_bias": false, "strides": [1, 1], "dilation_rate": [1, 1], "filters": 128, "activation": "linear", "kernel_size": [1, 1], "padding": "valid", "bias_constraint": null, "trainable": false, "name": "conv4_block1_1_conv", "kernel_regularizer": null, "bias_regularizer": null, "kernel_initializer": {"config": {"distribution": "uniform", "scale": 1.0, "mode": "fan_avg", "seed": null}, "class_name": "VarianceScaling"}, "data_format": "channels_last"}, "class_name": "Conv2D", "inbound_nodes": [[["conv4_block1_0_relu", 0, 0, {}]]]}, {"name": "conv4_block1_1_bn", "config": {"gamma_initializer": {"config": {}, "class_name": "Ones"}, "beta_constraint": null, "momentum": 0.99, "gamma_constraint": null, "name": "conv4_block1_1_bn", "epsilon": 1.001e-05, "gamma_regularizer": null, "trainable": false, "beta_initializer": {"config": {}, "class_name": "Zeros"}, "beta_regularizer": null, "axis": 3, "moving_mean_initializer": {"config": {}, "class_name": "Zeros"}, "center": true, "moving_variance_initializer": {"config": {}, "class_name": "Ones"}, "scale": true}, "class_name": "BatchNormalization", "inbound_nodes": [[["conv4_block1_1_conv", 0, 0, {}]]]}, {"name": "conv4_block1_1_relu", "config": {"name": "conv4_block1_1_relu", "trainable": false, "activation": "relu"}, "class_name": "Activation", "inbound_nodes": [[["conv4_block1_1_bn", 0, 0, {}]]]}, {"name": "conv4_block1_2_conv", "config": {"kernel_constraint": null, "bias_initializer": {"config": {}, "class_name": "Zeros"}, "activity_regularizer": null, "use_bias": false, "strides": [1, 1], "dilation_rate": [1, 1], "filters": 32, "activation": "linear", "kernel_size": [3, 3], "padding": "same", "bias_constraint": null, "trainable": false, "name": "conv4_block1_2_conv", "kernel_regularizer": null, "bias_regularizer": null, "kernel_initializer": {"config": {"distribution": "uniform", "scale": 1.0, "mode": "fan_avg", "seed": null}, "class_name": "VarianceScaling"}, "data_format": "channels_last"}, "class_name": "Conv2D", "inbound_nodes": [[["conv4_block1_1_relu", 0, 0, {}]]]}, {"name": "conv4_block1_concat", "config": {"name": "conv4_block1_concat", "axis": 3, "trainable": false}, "class_name": "Concatenate", "inbound_nodes": [[["pool3_pool", 0, 0, {}], ["conv4_block1_2_conv", 0, 0, {}]]]}, {"name": "conv4_block2_0_bn", "config": {"gamma_initializer": {"config": {}, "class_name": "Ones"}, "beta_constraint": null, "momentum": 0.99, "gamma_constraint": null, "name": "conv4_block2_0_bn", "epsilon": 1.001e-05, "gamma_regularizer": null, "trainable": false, "beta_initializer": {"config": {}, "class_name": "Zeros"}, "beta_regularizer": null, "axis": 3, "moving_mean_initializer": {"config": {}, "class_name": "Zeros"}, "center": true, "moving_variance_initializer": {"config": {}, "class_name": "Ones"}, "scale": true}, "class_name": "BatchNormalization", "inbound_nodes": [[["conv4_block1_concat", 0, 0, {}]]]}, {"name": "conv4_block2_0_relu", "config": {"name": "conv4_block2_0_relu", "trainable": false, "activation": "relu"}, "class_name": "Activation", "inbound_nodes": [[["conv4_block2_0_bn", 0, 0, {}]]]}, {"name": "conv4_block2_1_conv", "config": {"kernel_constraint": null, "bias_initializer": {"config": {}, "class_name": "Zeros"}, "activity_regularizer": null, "use_bias": false, "strides": [1, 1], "dilation_rate": [1, 1], "filters": 128, "activation": "linear", "kernel_size": [1, 1], "padding": "valid", "bias_constraint": null, "trainable": false, "name": "conv4_block2_1_conv", "kernel_regularizer": null, "bias_regularizer": null, "kernel_initializer": {"config": {"distribution": "uniform", "scale": 1.0, "mode": "fan_avg", "seed": null}, "class_name": "VarianceScaling"}, "data_format": "channels_last"}, "class_name": "Conv2D", "inbound_nodes": [[["conv4_block2_0_relu", 0, 0, {}]]]}, {"name": "conv4_block2_1_bn", "config": {"gamma_initializer": {"config": {}, "class_name": "Ones"}, "beta_constraint": null, "momentum": 0.99, "gamma_constraint": null, "name": "conv4_block2_1_bn", "epsilon": 1.001e-05, "gamma_regularizer": null, "trainable": false, "beta_initializer": {"config": {}, "class_name": "Zeros"}, "beta_regularizer": null, "axis": 3, "moving_mean_initializer": {"config": {}, "class_name": "Zeros"}, "center": true, "moving_variance_initializer": {"config": {}, "class_name": "Ones"}, "scale": true}, "class_name": "BatchNormalization", "inbound_nodes": [[["conv4_block2_1_conv", 0, 0, {}]]]}, {"name": "conv4_block2_1_relu", "config": {"name": "conv4_block2_1_relu", "trainable": false, "activation": "relu"}, "class_name": "Activation", "inbound_nodes": [[["conv4_block2_1_bn", 0, 0, {}]]]}, {"name": "conv4_block2_2_conv", "config": {"kernel_constraint": null, "bias_initializer": {"config": {}, "class_name": "Zeros"}, "activity_regularizer": null, "use_bias": false, "strides": [1, 1], "dilation_rate": [1, 1], "filters": 32, "activation": "linear", "kernel_size": [3, 3], "padding": "same", "bias_constraint": null, "trainable": false, "name": "conv4_block2_2_conv", "kernel_regularizer": null, "bias_regularizer": null, "kernel_initializer": {"config": {"distribution": "uniform", "scale": 1.0, "mode": "fan_avg", "seed": null}, "class_name": "VarianceScaling"}, "data_format": "channels_last"}, "class_name": "Conv2D", "inbound_nodes": [[["conv4_block2_1_relu", 0, 0, {}]]]}, {"name": "conv4_block2_concat", "config": {"name": "conv4_block2_concat", "axis": 3, "trainable": false}, "class_name": "Concatenate", "inbound_nodes": [[["conv4_block1_concat", 0, 0, {}], ["conv4_block2_2_conv", 0, 0, {}]]]}, {"name": "conv4_block3_0_bn", "config": {"gamma_initializer": {"config": {}, "class_name": "Ones"}, "beta_constraint": null, "momentum": 0.99, "gamma_constraint": null, "name": "conv4_block3_0_bn", "epsilon": 1.001e-05, "gamma_regularizer": null, "trainable": false, "beta_initializer": {"config": {}, "class_name": "Zeros"}, "beta_regularizer": null, "axis": 3, "moving_mean_initializer": {"config": {}, "class_name": "Zeros"}, "center": true, "moving_variance_initializer": {"config": {}, "class_name": "Ones"}, "scale": true}, "class_name": "BatchNormalization", "inbound_nodes": [[["conv4_block2_concat", 0, 0, {}]]]}, {"name": "conv4_block3_0_relu", "config": {"name": "conv4_block3_0_relu", "trainable": false, "activation": "relu"}, "class_name": "Activation", "inbound_nodes": [[["conv4_block3_0_bn", 0, 0, {}]]]}, {"name": "conv4_block3_1_conv", "config": {"kernel_constraint": null, "bias_initializer": {"config": {}, "class_name": "Zeros"}, "activity_regularizer": null, "use_bias": false, "strides": [1, 1], "dilation_rate": [1, 1], "filters": 128, "activation": "linear", "kernel_size": [1, 1], "padding": "valid", "bias_constraint": null, "trainable": false, "name": "conv4_block3_1_conv", "kernel_regularizer": null, "bias_regularizer": null, "kernel_initializer": {"config": {"distribution": "uniform", "scale": 1.0, "mode": "fan_avg", "seed": null}, "class_name": "VarianceScaling"}, "data_format": "channels_last"}, "class_name": "Conv2D", "inbound_nodes": [[["conv4_block3_0_relu", 0, 0, {}]]]}, {"name": "conv4_block3_1_bn", "config": {"gamma_initializer": {"config": {}, "class_name": "Ones"}, "beta_constraint": null, "momentum": 0.99, "gamma_constraint": null, "name": "conv4_block3_1_bn", "epsilon": 1.001e-05, "gamma_regularizer": null, "trainable": false, "beta_initializer": {"config": {}, "class_name": "Zeros"}, "beta_regularizer": null, "axis": 3, "moving_mean_initializer": {"config": {}, "class_name": "Zeros"}, "center": true, "moving_variance_initializer": {"config": {}, "class_name": "Ones"}, "scale": true}, "class_name": "BatchNormalization", "inbound_nodes": [[["conv4_block3_1_conv", 0, 0, {}]]]}, {"name": "conv4_block3_1_relu", "config": {"name": "conv4_block3_1_relu", "trainable": false, "activation": "relu"}, "class_name": "Activation", "inbound_nodes": [[["conv4_block3_1_bn", 0, 0, {}]]]}, {"name": "conv4_block3_2_conv", "config": {"kernel_constraint": null, "bias_initializer": {"config": {}, "class_name": "Zeros"}, "activity_regularizer": null, "use_bias": false, "strides": [1, 1], "dilation_rate": [1, 1], "filters": 32, "activation": "linear", "kernel_size": [3, 3], "padding": "same", "bias_constraint": null, "trainable": false, "name": "conv4_block3_2_conv", "kernel_regularizer": null, "bias_regularizer": null, "kernel_initializer": {"config": {"distribution": "uniform", "scale": 1.0, "mode": "fan_avg", "seed": null}, "class_name": "VarianceScaling"}, "data_format": "channels_last"}, "class_name": "Conv2D", "inbound_nodes": [[["conv4_block3_1_relu", 0, 0, {}]]]}, {"name": "conv4_block3_concat", "config": {"name": "conv4_block3_concat", "axis": 3, "trainable": false}, "class_name": "Concatenate", "inbound_nodes": [[["conv4_block2_concat", 0, 0, {}], ["conv4_block3_2_conv", 0, 0, {}]]]}, {"name": "conv4_block4_0_bn", "config": {"gamma_initializer": {"config": {}, "class_name": "Ones"}, "beta_constraint": null, "momentum": 0.99, "gamma_constraint": null, "name": "conv4_block4_0_bn", "epsilon": 1.001e-05, "gamma_regularizer": null, "trainable": false, "beta_initializer": {"config": {}, "class_name": "Zeros"}, "beta_regularizer": null, "axis": 3, "moving_mean_initializer": {"config": {}, "class_name": "Zeros"}, "center": true, "moving_variance_initializer": {"config": {}, "class_name": "Ones"}, "scale": true}, "class_name": "BatchNormalization", "inbound_nodes": [[["conv4_block3_concat", 0, 0, {}]]]}, {"name": "conv4_block4_0_relu", "config": {"name": "conv4_block4_0_relu", "trainable": false, "activation": "relu"}, "class_name": "Activation", "inbound_nodes": [[["conv4_block4_0_bn", 0, 0, {}]]]}, {"name": "conv4_block4_1_conv", "config": {"kernel_constraint": null, "bias_initializer": {"config": {}, "class_name": "Zeros"}, "activity_regularizer": null, "use_bias": false, "strides": [1, 1], "dilation_rate": [1, 1], "filters": 128, "activation": "linear", "kernel_size": [1, 1], "padding": "valid", "bias_constraint": null, "trainable": false, "name": "conv4_block4_1_conv", "kernel_regularizer": null, "bias_regularizer": null, "kernel_initializer": {"config": {"distribution": "uniform", "scale": 1.0, "mode": "fan_avg", "seed": null}, "class_name": "VarianceScaling"}, "data_format": "channels_last"}, "class_name": "Conv2D", "inbound_nodes": [[["conv4_block4_0_relu", 0, 0, {}]]]}, {"name": "conv4_block4_1_bn", "config": {"gamma_initializer": {"config": {}, "class_name": "Ones"}, "beta_constraint": null, "momentum": 0.99, "gamma_constraint": null, "name": "conv4_block4_1_bn", "epsilon": 1.001e-05, "gamma_regularizer": null, "trainable": false, "beta_initializer": {"config": {}, "class_name": "Zeros"}, "beta_regularizer": null, "axis": 3, "moving_mean_initializer": {"config": {}, "class_name": "Zeros"}, "center": true, "moving_variance_initializer": {"config": {}, "class_name": "Ones"}, "scale": true}, "class_name": "BatchNormalization", "inbound_nodes": [[["conv4_block4_1_conv", 0, 0, {}]]]}, {"name": "conv4_block4_1_relu", "config": {"name": "conv4_block4_1_relu", "trainable": false, "activation": "relu"}, "class_name": "Activation", "inbound_nodes": [[["conv4_block4_1_bn", 0, 0, {}]]]}, {"name": "conv4_block4_2_conv", "config": {"kernel_constraint": null, "bias_initializer": {"config": {}, "class_name": "Zeros"}, "activity_regularizer": null, "use_bias": false, "strides": [1, 1], "dilation_rate": [1, 1], "filters": 32, "activation": "linear", "kernel_size": [3, 3], "padding": "same", "bias_constraint": null, "trainable": false, "name": "conv4_block4_2_conv", "kernel_regularizer": null, "bias_regularizer": null, "kernel_initializer": {"config": {"distribution": "uniform", "scale": 1.0, "mode": "fan_avg", "seed": null}, "class_name": "VarianceScaling"}, "data_format": "channels_last"}, "class_name": "Conv2D", "inbound_nodes": [[["conv4_block4_1_relu", 0, 0, {}]]]}, {"name": "conv4_block4_concat", "config": {"name": "conv4_block4_concat", "axis": 3, "trainable": false}, "class_name": "Concatenate", "inbound_nodes": [[["conv4_block3_concat", 0, 0, {}], ["conv4_block4_2_conv", 0, 0, {}]]]}, {"name": "conv4_block5_0_bn", "config": {"gamma_initializer": {"config": {}, "class_name": "Ones"}, "beta_constraint": null, "momentum": 0.99, "gamma_constraint": null, "name": "conv4_block5_0_bn", "epsilon": 1.001e-05, "gamma_regularizer": null, "trainable": false, "beta_initializer": {"config": {}, "class_name": "Zeros"}, "beta_regularizer": null, "axis": 3, "moving_mean_initializer": {"config": {}, "class_name": "Zeros"}, "center": true, "moving_variance_initializer": {"config": {}, "class_name": "Ones"}, "scale": true}, "class_name": "BatchNormalization", "inbound_nodes": [[["conv4_block4_concat", 0, 0, {}]]]}, {"name": "conv4_block5_0_relu", "config": {"name": "conv4_block5_0_relu", "trainable": false, "activation": "relu"}, "class_name": "Activation", "inbound_nodes": [[["conv4_block5_0_bn", 0, 0, {}]]]}, {"name": "conv4_block5_1_conv", "config": {"kernel_constraint": null, "bias_initializer": {"config": {}, "class_name": "Zeros"}, "activity_regularizer": null, "use_bias": false, "strides": [1, 1], "dilation_rate": [1, 1], "filters": 128, "activation": "linear", "kernel_size": [1, 1], "padding": "valid", "bias_constraint": null, "trainable": false, "name": "conv4_block5_1_conv", "kernel_regularizer": null, "bias_regularizer": null, "kernel_initializer": {"config": {"distribution": "uniform", "scale": 1.0, "mode": "fan_avg", "seed": null}, "class_name": "VarianceScaling"}, "data_format": "channels_last"}, "class_name": "Conv2D", "inbound_nodes": [[["conv4_block5_0_relu", 0, 0, {}]]]}, {"name": "conv4_block5_1_bn", "config": {"gamma_initializer": {"config": {}, "class_name": "Ones"}, "beta_constraint": null, "momentum": 0.99, "gamma_constraint": null, "name": "conv4_block5_1_bn", "epsilon": 1.001e-05, "gamma_regularizer": null, "trainable": false, "beta_initializer": {"config": {}, "class_name": "Zeros"}, "beta_regularizer": null, "axis": 3, "moving_mean_initializer": {"config": {}, "class_name": "Zeros"}, "center": true, "moving_variance_initializer": {"config": {}, "class_name": "Ones"}, "scale": true}, "class_name": "BatchNormalization", "inbound_nodes": [[["conv4_block5_1_conv", 0, 0, {}]]]}, {"name": "conv4_block5_1_relu", "config": {"name": "conv4_block5_1_relu", "trainable": false, "activation": "relu"}, "class_name": "Activation", "inbound_nodes": [[["conv4_block5_1_bn", 0, 0, {}]]]}, {"name": "conv4_block5_2_conv", "config": {"kernel_constraint": null, "bias_initializer": {"config": {}, "class_name": "Zeros"}, "activity_regularizer": null, "use_bias": false, "strides": [1, 1], "dilation_rate": [1, 1], "filters": 32, "activation": "linear", "kernel_size": [3, 3], "padding": "same", "bias_constraint": null, "trainable": false, "name": "conv4_block5_2_conv", "kernel_regularizer": null, "bias_regularizer": null, "kernel_initializer": {"config": {"distribution": "uniform", "scale": 1.0, "mode": "fan_avg", "seed": null}, "class_name": "VarianceScaling"}, "data_format": "channels_last"}, "class_name": "Conv2D", "inbound_nodes": [[["conv4_block5_1_relu", 0, 0, {}]]]}, {"name": "conv4_block5_concat", "config": {"name": "conv4_block5_concat", "axis": 3, "trainable": false}, "class_name": "Concatenate", "inbound_nodes": [[["conv4_block4_concat", 0, 0, {}], ["conv4_block5_2_conv", 0, 0, {}]]]}, {"name": "conv4_block6_0_bn", "config": {"gamma_initializer": {"config": {}, "class_name": "Ones"}, "beta_constraint": null, "momentum": 0.99, "gamma_constraint": null, "name": "conv4_block6_0_bn", "epsilon": 1.001e-05, "gamma_regularizer": null, "trainable": false, "beta_initializer": {"config": {}, "class_name": "Zeros"}, "beta_regularizer": null, "axis": 3, "moving_mean_initializer": {"config": {}, "class_name": "Zeros"}, "center": true, "moving_variance_initializer": {"config": {}, "class_name": "Ones"}, "scale": true}, "class_name": "BatchNormalization", "inbound_nodes": [[["conv4_block5_concat", 0, 0, {}]]]}, {"name": "conv4_block6_0_relu", "config": {"name": "conv4_block6_0_relu", "trainable": false, "activation": "relu"}, "class_name": "Activation", "inbound_nodes": [[["conv4_block6_0_bn", 0, 0, {}]]]}, {"name": "conv4_block6_1_conv", "config": {"kernel_constraint": null, "bias_initializer": {"config": {}, "class_name": "Zeros"}, "activity_regularizer": null, "use_bias": false, "strides": [1, 1], "dilation_rate": [1, 1], "filters": 128, "activation": "linear", "kernel_size": [1, 1], "padding": "valid", "bias_constraint": null, "trainable": false, "name": "conv4_block6_1_conv", "kernel_regularizer": null, "bias_regularizer": null, "kernel_initializer": {"config": {"distribution": "uniform", "scale": 1.0, "mode": "fan_avg", "seed": null}, "class_name": "VarianceScaling"}, "data_format": "channels_last"}, "class_name": "Conv2D", "inbound_nodes": [[["conv4_block6_0_relu", 0, 0, {}]]]}, {"name": "conv4_block6_1_bn", "config": {"gamma_initializer": {"config": {}, "class_name": "Ones"}, "beta_constraint": null, "momentum": 0.99, "gamma_constraint": null, "name": "conv4_block6_1_bn", "epsilon": 1.001e-05, "gamma_regularizer": null, "trainable": false, "beta_initializer": {"config": {}, "class_name": "Zeros"}, "beta_regularizer": null, "axis": 3, "moving_mean_initializer": {"config": {}, "class_name": "Zeros"}, "center": true, "moving_variance_initializer": {"config": {}, "class_name": "Ones"}, "scale": true}, "class_name": "BatchNormalization", "inbound_nodes": [[["conv4_block6_1_conv", 0, 0, {}]]]}, {"name": "conv4_block6_1_relu", "config": {"name": "conv4_block6_1_relu", "trainable": false, "activation": "relu"}, "class_name": "Activation", "inbound_nodes": [[["conv4_block6_1_bn", 0, 0, {}]]]}, {"name": "conv4_block6_2_conv", "config": {"kernel_constraint": null, "bias_initializer": {"config": {}, "class_name": "Zeros"}, "activity_regularizer": null, "use_bias": false, "strides": [1, 1], "dilation_rate": [1, 1], "filters": 32, "activation": "linear", "kernel_size": [3, 3], "padding": "same", "bias_constraint": null, "trainable": false, "name": "conv4_block6_2_conv", "kernel_regularizer": null, "bias_regularizer": null, "kernel_initializer": {"config": {"distribution": "uniform", "scale": 1.0, "mode": "fan_avg", "seed": null}, "class_name": "VarianceScaling"}, "data_format": "channels_last"}, "class_name": "Conv2D", "inbound_nodes": [[["conv4_block6_1_relu", 0, 0, {}]]]}, {"name": "conv4_block6_concat", "config": {"name": "conv4_block6_concat", "axis": 3, "trainable": false}, "class_name": "Concatenate", "inbound_nodes": [[["conv4_block5_concat", 0, 0, {}], ["conv4_block6_2_conv", 0, 0, {}]]]}, {"name": "conv4_block7_0_bn", "config": {"gamma_initializer": {"config": {}, "class_name": "Ones"}, "beta_constraint": null, "momentum": 0.99, "gamma_constraint": null, "name": "conv4_block7_0_bn", "epsilon": 1.001e-05, "gamma_regularizer": null, "trainable": false, "beta_initializer": {"config": {}, "class_name": "Zeros"}, "beta_regularizer": null, "axis": 3, "moving_mean_initializer": {"config": {}, "class_name": "Zeros"}, "center": true, "moving_variance_initializer": {"config": {}, "class_name": "Ones"}, "scale": true}, "class_name": "BatchNormalization", "inbound_nodes": [[["conv4_block6_concat", 0, 0, {}]]]}, {"name": "conv4_block7_0_relu", "config": {"name": "conv4_block7_0_relu", "trainable": false, "activation": "relu"}, "class_name": "Activation", "inbound_nodes": [[["conv4_block7_0_bn", 0, 0, {}]]]}, {"name": "conv4_block7_1_conv", "config": {"kernel_constraint": null, "bias_initializer": {"config": {}, "class_name": "Zeros"}, "activity_regularizer": null, "use_bias": false, "strides": [1, 1], "dilation_rate": [1, 1], "filters": 128, "activation": "linear", "kernel_size": [1, 1], "padding": "valid", "bias_constraint": null, "trainable": false, "name": "conv4_block7_1_conv", "kernel_regularizer": null, "bias_regularizer": null, "kernel_initializer": {"config": {"distribution": "uniform", "scale": 1.0, "mode": "fan_avg", "seed": null}, "class_name": "VarianceScaling"}, "data_format": "channels_last"}, "class_name": "Conv2D", "inbound_nodes": [[["conv4_block7_0_relu", 0, 0, {}]]]}, {"name": "conv4_block7_1_bn", "config": {"gamma_initializer": {"config": {}, "class_name": "Ones"}, "beta_constraint": null, "momentum": 0.99, "gamma_constraint": null, "name": "conv4_block7_1_bn", "epsilon": 1.001e-05, "gamma_regularizer": null, "trainable": false, "beta_initializer": {"config": {}, "class_name": "Zeros"}, "beta_regularizer": null, "axis": 3, "moving_mean_initializer": {"config": {}, "class_name": "Zeros"}, "center": true, "moving_variance_initializer": {"config": {}, "class_name": "Ones"}, "scale": true}, "class_name": "BatchNormalization", "inbound_nodes": [[["conv4_block7_1_conv", 0, 0, {}]]]}, {"name": "conv4_block7_1_relu", "config": {"name": "conv4_block7_1_relu", "trainable": false, "activation": "relu"}, "class_name": "Activation", "inbound_nodes": [[["conv4_block7_1_bn", 0, 0, {}]]]}, {"name": "conv4_block7_2_conv", "config": {"kernel_constraint": null, "bias_initializer": {"config": {}, "class_name": "Zeros"}, "activity_regularizer": null, "use_bias": false, "strides": [1, 1], "dilation_rate": [1, 1], "filters": 32, "activation": "linear", "kernel_size": [3, 3], "padding": "same", "bias_constraint": null, "trainable": false, "name": "conv4_block7_2_conv", "kernel_regularizer": null, "bias_regularizer": null, "kernel_initializer": {"config": {"distribution": "uniform", "scale": 1.0, "mode": "fan_avg", "seed": null}, "class_name": "VarianceScaling"}, "data_format": "channels_last"}, "class_name": "Conv2D", "inbound_nodes": [[["conv4_block7_1_relu", 0, 0, {}]]]}, {"name": "conv4_block7_concat", "config": {"name": "conv4_block7_concat", "axis": 3, "trainable": false}, "class_name": "Concatenate", "inbound_nodes": [[["conv4_block6_concat", 0, 0, {}], ["conv4_block7_2_conv", 0, 0, {}]]]}, {"name": "conv4_block8_0_bn", "config": {"gamma_initializer": {"config": {}, "class_name": "Ones"}, "beta_constraint": null, "momentum": 0.99, "gamma_constraint": null, "name": "conv4_block8_0_bn", "epsilon": 1.001e-05, "gamma_regularizer": null, "trainable": false, "beta_initializer": {"config": {}, "class_name": "Zeros"}, "beta_regularizer": null, "axis": 3, "moving_mean_initializer": {"config": {}, "class_name": "Zeros"}, "center": true, "moving_variance_initializer": {"config": {}, "class_name": "Ones"}, "scale": true}, "class_name": "BatchNormalization", "inbound_nodes": [[["conv4_block7_concat", 0, 0, {}]]]}, {"name": "conv4_block8_0_relu", "config": {"name": "conv4_block8_0_relu", "trainable": false, "activation": "relu"}, "class_name": "Activation", "inbound_nodes": [[["conv4_block8_0_bn", 0, 0, {}]]]}, {"name": "conv4_block8_1_conv", "config": {"kernel_constraint": null, "bias_initializer": {"config": {}, "class_name": "Zeros"}, "activity_regularizer": null, "use_bias": false, "strides": [1, 1], "dilation_rate": [1, 1], "filters": 128, "activation": "linear", "kernel_size": [1, 1], "padding": "valid", "bias_constraint": null, "trainable": false, "name": "conv4_block8_1_conv", "kernel_regularizer": null, "bias_regularizer": null, "kernel_initializer": {"config": {"distribution": "uniform", "scale": 1.0, "mode": "fan_avg", "seed": null}, "class_name": "VarianceScaling"}, "data_format": "channels_last"}, "class_name": "Conv2D", "inbound_nodes": [[["conv4_block8_0_relu", 0, 0, {}]]]}, {"name": "conv4_block8_1_bn", "config": {"gamma_initializer": {"config": {}, "class_name": "Ones"}, "beta_constraint": null, "momentum": 0.99, "gamma_constraint": null, "name": "conv4_block8_1_bn", "epsilon": 1.001e-05, "gamma_regularizer": null, "trainable": false, "beta_initializer": {"config": {}, "class_name": "Zeros"}, "beta_regularizer": null, "axis": 3, "moving_mean_initializer": {"config": {}, "class_name": "Zeros"}, "center": true, "moving_variance_initializer": {"config": {}, "class_name": "Ones"}, "scale": true}, "class_name": "BatchNormalization", "inbound_nodes": [[["conv4_block8_1_conv", 0, 0, {}]]]}, {"name": "conv4_block8_1_relu", "config": {"name": "conv4_block8_1_relu", "trainable": false, "activation": "relu"}, "class_name": "Activation", "inbound_nodes": [[["conv4_block8_1_bn", 0, 0, {}]]]}, {"name": "conv4_block8_2_conv", "config": {"kernel_constraint": null, "bias_initializer": {"config": {}, "class_name": "Zeros"}, "activity_regularizer": null, "use_bias": false, "strides": [1, 1], "dilation_rate": [1, 1], "filters": 32, "activation": "linear", "kernel_size": [3, 3], "padding": "same", "bias_constraint": null, "trainable": false, "name": "conv4_block8_2_conv", "kernel_regularizer": null, "bias_regularizer": null, "kernel_initializer": {"config": {"distribution": "uniform", "scale": 1.0, "mode": "fan_avg", "seed": null}, "class_name": "VarianceScaling"}, "data_format": "channels_last"}, "class_name": "Conv2D", "inbound_nodes": [[["conv4_block8_1_relu", 0, 0, {}]]]}, {"name": "conv4_block8_concat", "config": {"name": "conv4_block8_concat", "axis": 3, "trainable": false}, "class_name": "Concatenate", "inbound_nodes": [[["conv4_block7_concat", 0, 0, {}], ["conv4_block8_2_conv", 0, 0, {}]]]}, {"name": "conv4_block9_0_bn", "config": {"gamma_initializer": {"config": {}, "class_name": "Ones"}, "beta_constraint": null, "momentum": 0.99, "gamma_constraint": null, "name": "conv4_block9_0_bn", "epsilon": 1.001e-05, "gamma_regularizer": null, "trainable": false, "beta_initializer": {"config": {}, "class_name": "Zeros"}, "beta_regularizer": null, "axis": 3, "moving_mean_initializer": {"config": {}, "class_name": "Zeros"}, "center": true, "moving_variance_initializer": {"config": {}, "class_name": "Ones"}, "scale": true}, "class_name": "BatchNormalization", "inbound_nodes": [[["conv4_block8_concat", 0, 0, {}]]]}, {"name": "conv4_block9_0_relu", "config": {"name": "conv4_block9_0_relu", "trainable": false, "activation": "relu"}, "class_name": "Activation", "inbound_nodes": [[["conv4_block9_0_bn", 0, 0, {}]]]}, {"name": "conv4_block9_1_conv", "config": {"kernel_constraint": null, "bias_initializer": {"config": {}, "class_name": "Zeros"}, "activity_regularizer": null, "use_bias": false, "strides": [1, 1], "dilation_rate": [1, 1], "filters": 128, "activation": "linear", "kernel_size": [1, 1], "padding": "valid", "bias_constraint": null, "trainable": false, "name": "conv4_block9_1_conv", "kernel_regularizer": null, "bias_regularizer": null, "kernel_initializer": {"config": {"distribution": "uniform", "scale": 1.0, "mode": "fan_avg", "seed": null}, "class_name": "VarianceScaling"}, "data_format": "channels_last"}, "class_name": "Conv2D", "inbound_nodes": [[["conv4_block9_0_relu", 0, 0, {}]]]}, {"name": "conv4_block9_1_bn", "config": {"gamma_initializer": {"config": {}, "class_name": "Ones"}, "beta_constraint": null, "momentum": 0.99, "gamma_constraint": null, "name": "conv4_block9_1_bn", "epsilon": 1.001e-05, "gamma_regularizer": null, "trainable": false, "beta_initializer": {"config": {}, "class_name": "Zeros"}, "beta_regularizer": null, "axis": 3, "moving_mean_initializer": {"config": {}, "class_name": "Zeros"}, "center": true, "moving_variance_initializer": {"config": {}, "class_name": "Ones"}, "scale": true}, "class_name": "BatchNormalization", "inbound_nodes": [[["conv4_block9_1_conv", 0, 0, {}]]]}, {"name": "conv4_block9_1_relu", "config": {"name": "conv4_block9_1_relu", "trainable": false, "activation": "relu"}, "class_name": "Activation", "inbound_nodes": [[["conv4_block9_1_bn", 0, 0, {}]]]}, {"name": "conv4_block9_2_conv", "config": {"kernel_constraint": null, "bias_initializer": {"config": {}, "class_name": "Zeros"}, "activity_regularizer": null, "use_bias": false, "strides": [1, 1], "dilation_rate": [1, 1], "filters": 32, "activation": "linear", "kernel_size": [3, 3], "padding": "same", "bias_constraint": null, "trainable": false, "name": "conv4_block9_2_conv", "kernel_regularizer": null, "bias_regularizer": null, "kernel_initializer": {"config": {"distribution": "uniform", "scale": 1.0, "mode": "fan_avg", "seed": null}, "class_name": "VarianceScaling"}, "data_format": "channels_last"}, "class_name": "Conv2D", "inbound_nodes": [[["conv4_block9_1_relu", 0, 0, {}]]]}, {"name": "conv4_block9_concat", "config": {"name": "conv4_block9_concat", "axis": 3, "trainable": false}, "class_name": "Concatenate", "inbound_nodes": [[["conv4_block8_concat", 0, 0, {}], ["conv4_block9_2_conv", 0, 0, {}]]]}, {"name": "conv4_block10_0_bn", "config": {"gamma_initializer": {"config": {}, "class_name": "Ones"}, "beta_constraint": null, "momentum": 0.99, "gamma_constraint": null, "name": "conv4_block10_0_bn", "epsilon": 1.001e-05, "gamma_regularizer": null, "trainable": false, "beta_initializer": {"config": {}, "class_name": "Zeros"}, "beta_regularizer": null, "axis": 3, "moving_mean_initializer": {"config": {}, "class_name": "Zeros"}, "center": true, "moving_variance_initializer": {"config": {}, "class_name": "Ones"}, "scale": true}, "class_name": "BatchNormalization", "inbound_nodes": [[["conv4_block9_concat", 0, 0, {}]]]}, {"name": "conv4_block10_0_relu", "config": {"name": "conv4_block10_0_relu", "trainable": false, "activation": "relu"}, "class_name": "Activation", "inbound_nodes": [[["conv4_block10_0_bn", 0, 0, {}]]]}, {"name": "conv4_block10_1_conv", "config": {"kernel_constraint": null, "bias_initializer": {"config": {}, "class_name": "Zeros"}, "activity_regularizer": null, "use_bias": false, "strides": [1, 1], "dilation_rate": [1, 1], "filters": 128, "activation": "linear", "kernel_size": [1, 1], "padding": "valid", "bias_constraint": null, "trainable": false, "name": "conv4_block10_1_conv", "kernel_regularizer": null, "bias_regularizer": null, "kernel_initializer": {"config": {"distribution": "uniform", "scale": 1.0, "mode": "fan_avg", "seed": null}, "class_name": "VarianceScaling"}, "data_format": "channels_last"}, "class_name": "Conv2D", "inbound_nodes": [[["conv4_block10_0_relu", 0, 0, {}]]]}, {"name": "conv4_block10_1_bn", "config": {"gamma_initializer": {"config": {}, "class_name": "Ones"}, "beta_constraint": null, "momentum": 0.99, "gamma_constraint": null, "name": "conv4_block10_1_bn", "epsilon": 1.001e-05, "gamma_regularizer": null, "trainable": false, "beta_initializer": {"config": {}, "class_name": "Zeros"}, "beta_regularizer": null, "axis": 3, "moving_mean_initializer": {"config": {}, "class_name": "Zeros"}, "center": true, "moving_variance_initializer": {"config": {}, "class_name": "Ones"}, "scale": true}, "class_name": "BatchNormalization", "inbound_nodes": [[["conv4_block10_1_conv", 0, 0, {}]]]}, {"name": "conv4_block10_1_relu", "config": {"name": "conv4_block10_1_relu", "trainable": false, "activation": "relu"}, "class_name": "Activation", "inbound_nodes": [[["conv4_block10_1_bn", 0, 0, {}]]]}, {"name": "conv4_block10_2_conv", "config": {"kernel_constraint": null, "bias_initializer": {"config": {}, "class_name": "Zeros"}, "activity_regularizer": null, "use_bias": false, "strides": [1, 1], "dilation_rate": [1, 1], "filters": 32, "activation": "linear", "kernel_size": [3, 3], "padding": "same", "bias_constraint": null, "trainable": false, "name": "conv4_block10_2_conv", "kernel_regularizer": null, "bias_regularizer": null, "kernel_initializer": {"config": {"distribution": "uniform", "scale": 1.0, "mode": "fan_avg", "seed": null}, "class_name": "VarianceScaling"}, "data_format": "channels_last"}, "class_name": "Conv2D", "inbound_nodes": [[["conv4_block10_1_relu", 0, 0, {}]]]}, {"name": "conv4_block10_concat", "config": {"name": "conv4_block10_concat", "axis": 3, "trainable": false}, "class_name": "Concatenate", "inbound_nodes": [[["conv4_block9_concat", 0, 0, {}], ["conv4_block10_2_conv", 0, 0, {}]]]}, {"name": "conv4_block11_0_bn", "config": {"gamma_initializer": {"config": {}, "class_name": "Ones"}, "beta_constraint": null, "momentum": 0.99, "gamma_constraint": null, "name": "conv4_block11_0_bn", "epsilon": 1.001e-05, "gamma_regularizer": null, "trainable": false, "beta_initializer": {"config": {}, "class_name": "Zeros"}, "beta_regularizer": null, "axis": 3, "moving_mean_initializer": {"config": {}, "class_name": "Zeros"}, "center": true, "moving_variance_initializer": {"config": {}, "class_name": "Ones"}, "scale": true}, "class_name": "BatchNormalization", "inbound_nodes": [[["conv4_block10_concat", 0, 0, {}]]]}, {"name": "conv4_block11_0_relu", "config": {"name": "conv4_block11_0_relu", "trainable": false, "activation": "relu"}, "class_name": "Activation", "inbound_nodes": [[["conv4_block11_0_bn", 0, 0, {}]]]}, {"name": "conv4_block11_1_conv", "config": {"kernel_constraint": null, "bias_initializer": {"config": {}, "class_name": "Zeros"}, "activity_regularizer": null, "use_bias": false, "strides": [1, 1], "dilation_rate": [1, 1], "filters": 128, "activation": "linear", "kernel_size": [1, 1], "padding": "valid", "bias_constraint": null, "trainable": false, "name": "conv4_block11_1_conv", "kernel_regularizer": null, "bias_regularizer": null, "kernel_initializer": {"config": {"distribution": "uniform", "scale": 1.0, "mode": "fan_avg", "seed": null}, "class_name": "VarianceScaling"}, "data_format": "channels_last"}, "class_name": "Conv2D", "inbound_nodes": [[["conv4_block11_0_relu", 0, 0, {}]]]}, {"name": "conv4_block11_1_bn", "config": {"gamma_initializer": {"config": {}, "class_name": "Ones"}, "beta_constraint": null, "momentum": 0.99, "gamma_constraint": null, "name": "conv4_block11_1_bn", "epsilon": 1.001e-05, "gamma_regularizer": null, "trainable": false, "beta_initializer": {"config": {}, "class_name": "Zeros"}, "beta_regularizer": null, "axis": 3, "moving_mean_initializer": {"config": {}, "class_name": "Zeros"}, "center": true, "moving_variance_initializer": {"config": {}, "class_name": "Ones"}, "scale": true}, "class_name": "BatchNormalization", "inbound_nodes": [[["conv4_block11_1_conv", 0, 0, {}]]]}, {"name": "conv4_block11_1_relu", "config": {"name": "conv4_block11_1_relu", "trainable": false, "activation": "relu"}, "class_name": "Activation", "inbound_nodes": [[["conv4_block11_1_bn", 0, 0, {}]]]}, {"name": "conv4_block11_2_conv", "config": {"kernel_constraint": null, "bias_initializer": {"config": {}, "class_name": "Zeros"}, "activity_regularizer": null, "use_bias": false, "strides": [1, 1], "dilation_rate": [1, 1], "filters": 32, "activation": "linear", "kernel_size": [3, 3], "padding": "same", "bias_constraint": null, "trainable": false, "name": "conv4_block11_2_conv", "kernel_regularizer": null, "bias_regularizer": null, "kernel_initializer": {"config": {"distribution": "uniform", "scale": 1.0, "mode": "fan_avg", "seed": null}, "class_name": "VarianceScaling"}, "data_format": "channels_last"}, "class_name": "Conv2D", "inbound_nodes": [[["conv4_block11_1_relu", 0, 0, {}]]]}, {"name": "conv4_block11_concat", "config": {"name": "conv4_block11_concat", "axis": 3, "trainable": false}, "class_name": "Concatenate", "inbound_nodes": [[["conv4_block10_concat", 0, 0, {}], ["conv4_block11_2_conv", 0, 0, {}]]]}, {"name": "conv4_block12_0_bn", "config": {"gamma_initializer": {"config": {}, "class_name": "Ones"}, "beta_constraint": null, "momentum": 0.99, "gamma_constraint": null, "name": "conv4_block12_0_bn", "epsilon": 1.001e-05, "gamma_regularizer": null, "trainable": false, "beta_initializer": {"config": {}, "class_name": "Zeros"}, "beta_regularizer": null, "axis": 3, "moving_mean_initializer": {"config": {}, "class_name": "Zeros"}, "center": true, "moving_variance_initializer": {"config": {}, "class_name": "Ones"}, "scale": true}, "class_name": "BatchNormalization", "inbound_nodes": [[["conv4_block11_concat", 0, 0, {}]]]}, {"name": "conv4_block12_0_relu", "config": {"name": "conv4_block12_0_relu", "trainable": false, "activation": "relu"}, "class_name": "Activation", "inbound_nodes": [[["conv4_block12_0_bn", 0, 0, {}]]]}, {"name": "conv4_block12_1_conv", "config": {"kernel_constraint": null, "bias_initializer": {"config": {}, "class_name": "Zeros"}, "activity_regularizer": null, "use_bias": false, "strides": [1, 1], "dilation_rate": [1, 1], "filters": 128, "activation": "linear", "kernel_size": [1, 1], "padding": "valid", "bias_constraint": null, "trainable": false, "name": "conv4_block12_1_conv", "kernel_regularizer": null, "bias_regularizer": null, "kernel_initializer": {"config": {"distribution": "uniform", "scale": 1.0, "mode": "fan_avg", "seed": null}, "class_name": "VarianceScaling"}, "data_format": "channels_last"}, "class_name": "Conv2D", "inbound_nodes": [[["conv4_block12_0_relu", 0, 0, {}]]]}, {"name": "conv4_block12_1_bn", "config": {"gamma_initializer": {"config": {}, "class_name": "Ones"}, "beta_constraint": null, "momentum": 0.99, "gamma_constraint": null, "name": "conv4_block12_1_bn", "epsilon": 1.001e-05, "gamma_regularizer": null, "trainable": false, "beta_initializer": {"config": {}, "class_name": "Zeros"}, "beta_regularizer": null, "axis": 3, "moving_mean_initializer": {"config": {}, "class_name": "Zeros"}, "center": true, "moving_variance_initializer": {"config": {}, "class_name": "Ones"}, "scale": true}, "class_name": "BatchNormalization", "inbound_nodes": [[["conv4_block12_1_conv", 0, 0, {}]]]}, {"name": "conv4_block12_1_relu", "config": {"name": "conv4_block12_1_relu", "trainable": false, "activation": "relu"}, "class_name": "Activation", "inbound_nodes": [[["conv4_block12_1_bn", 0, 0, {}]]]}, {"name": "conv4_block12_2_conv", "config": {"kernel_constraint": null, "bias_initializer": {"config": {}, "class_name": "Zeros"}, "activity_regularizer": null, "use_bias": false, "strides": [1, 1], "dilation_rate": [1, 1], "filters": 32, "activation": "linear", "kernel_size": [3, 3], "padding": "same", "bias_constraint": null, "trainable": false, "name": "conv4_block12_2_conv", "kernel_regularizer": null, "bias_regularizer": null, "kernel_initializer": {"config": {"distribution": "uniform", "scale": 1.0, "mode": "fan_avg", "seed": null}, "class_name": "VarianceScaling"}, "data_format": "channels_last"}, "class_name": "Conv2D", "inbound_nodes": [[["conv4_block12_1_relu", 0, 0, {}]]]}, {"name": "conv4_block12_concat", "config": {"name": "conv4_block12_concat", "axis": 3, "trainable": false}, "class_name": "Concatenate", "inbound_nodes": [[["conv4_block11_concat", 0, 0, {}], ["conv4_block12_2_conv", 0, 0, {}]]]}, {"name": "conv4_block13_0_bn", "config": {"gamma_initializer": {"config": {}, "class_name": "Ones"}, "beta_constraint": null, "momentum": 0.99, "gamma_constraint": null, "name": "conv4_block13_0_bn", "epsilon": 1.001e-05, "gamma_regularizer": null, "trainable": false, "beta_initializer": {"config": {}, "class_name": "Zeros"}, "beta_regularizer": null, "axis": 3, "moving_mean_initializer": {"config": {}, "class_name": "Zeros"}, "center": true, "moving_variance_initializer": {"config": {}, "class_name": "Ones"}, "scale": true}, "class_name": "BatchNormalization", "inbound_nodes": [[["conv4_block12_concat", 0, 0, {}]]]}, {"name": "conv4_block13_0_relu", "config": {"name": "conv4_block13_0_relu", "trainable": false, "activation": "relu"}, "class_name": "Activation", "inbound_nodes": [[["conv4_block13_0_bn", 0, 0, {}]]]}, {"name": "conv4_block13_1_conv", "config": {"kernel_constraint": null, "bias_initializer": {"config": {}, "class_name": "Zeros"}, "activity_regularizer": null, "use_bias": false, "strides": [1, 1], "dilation_rate": [1, 1], "filters": 128, "activation": "linear", "kernel_size": [1, 1], "padding": "valid", "bias_constraint": null, "trainable": false, "name": "conv4_block13_1_conv", "kernel_regularizer": null, "bias_regularizer": null, "kernel_initializer": {"config": {"distribution": "uniform", "scale": 1.0, "mode": "fan_avg", "seed": null}, "class_name": "VarianceScaling"}, "data_format": "channels_last"}, "class_name": "Conv2D", "inbound_nodes": [[["conv4_block13_0_relu", 0, 0, {}]]]}, {"name": "conv4_block13_1_bn", "config": {"gamma_initializer": {"config": {}, "class_name": "Ones"}, "beta_constraint": null, "momentum": 0.99, "gamma_constraint": null, "name": "conv4_block13_1_bn", "epsilon": 1.001e-05, "gamma_regularizer": null, "trainable": false, "beta_initializer": {"config": {}, "class_name": "Zeros"}, "beta_regularizer": null, "axis": 3, "moving_mean_initializer": {"config": {}, "class_name": "Zeros"}, "center": true, "moving_variance_initializer": {"config": {}, "class_name": "Ones"}, "scale": true}, "class_name": "BatchNormalization", "inbound_nodes": [[["conv4_block13_1_conv", 0, 0, {}]]]}, {"name": "conv4_block13_1_relu", "config": {"name": "conv4_block13_1_relu", "trainable": false, "activation": "relu"}, "class_name": "Activation", "inbound_nodes": [[["conv4_block13_1_bn", 0, 0, {}]]]}, {"name": "conv4_block13_2_conv", "config": {"kernel_constraint": null, "bias_initializer": {"config": {}, "class_name": "Zeros"}, "activity_regularizer": null, "use_bias": false, "strides": [1, 1], "dilation_rate": [1, 1], "filters": 32, "activation": "linear", "kernel_size": [3, 3], "padding": "same", "bias_constraint": null, "trainable": false, "name": "conv4_block13_2_conv", "kernel_regularizer": null, "bias_regularizer": null, "kernel_initializer": {"config": {"distribution": "uniform", "scale": 1.0, "mode": "fan_avg", "seed": null}, "class_name": "VarianceScaling"}, "data_format": "channels_last"}, "class_name": "Conv2D", "inbound_nodes": [[["conv4_block13_1_relu", 0, 0, {}]]]}, {"name": "conv4_block13_concat", "config": {"name": "conv4_block13_concat", "axis": 3, "trainable": false}, "class_name": "Concatenate", "inbound_nodes": [[["conv4_block12_concat", 0, 0, {}], ["conv4_block13_2_conv", 0, 0, {}]]]}, {"name": "conv4_block14_0_bn", "config": {"gamma_initializer": {"config": {}, "class_name": "Ones"}, "beta_constraint": null, "momentum": 0.99, "gamma_constraint": null, "name": "conv4_block14_0_bn", "epsilon": 1.001e-05, "gamma_regularizer": null, "trainable": false, "beta_initializer": {"config": {}, "class_name": "Zeros"}, "beta_regularizer": null, "axis": 3, "moving_mean_initializer": {"config": {}, "class_name": "Zeros"}, "center": true, "moving_variance_initializer": {"config": {}, "class_name": "Ones"}, "scale": true}, "class_name": "BatchNormalization", "inbound_nodes": [[["conv4_block13_concat", 0, 0, {}]]]}, {"name": "conv4_block14_0_relu", "config": {"name": "conv4_block14_0_relu", "trainable": false, "activation": "relu"}, "class_name": "Activation", "inbound_nodes": [[["conv4_block14_0_bn", 0, 0, {}]]]}, {"name": "conv4_block14_1_conv", "config": {"kernel_constraint": null, "bias_initializer": {"config": {}, "class_name": "Zeros"}, "activity_regularizer": null, "use_bias": false, "strides": [1, 1], "dilation_rate": [1, 1], "filters": 128, "activation": "linear", "kernel_size": [1, 1], "padding": "valid", "bias_constraint": null, "trainable": false, "name": "conv4_block14_1_conv", "kernel_regularizer": null, "bias_regularizer": null, "kernel_initializer": {"config": {"distribution": "uniform", "scale": 1.0, "mode": "fan_avg", "seed": null}, "class_name": "VarianceScaling"}, "data_format": "channels_last"}, "class_name": "Conv2D", "inbound_nodes": [[["conv4_block14_0_relu", 0, 0, {}]]]}, {"name": "conv4_block14_1_bn", "config": {"gamma_initializer": {"config": {}, "class_name": "Ones"}, "beta_constraint": null, "momentum": 0.99, "gamma_constraint": null, "name": "conv4_block14_1_bn", "epsilon": 1.001e-05, "gamma_regularizer": null, "trainable": false, "beta_initializer": {"config": {}, "class_name": "Zeros"}, "beta_regularizer": null, "axis": 3, "moving_mean_initializer": {"config": {}, "class_name": "Zeros"}, "center": true, "moving_variance_initializer": {"config": {}, "class_name": "Ones"}, "scale": true}, "class_name": "BatchNormalization", "inbound_nodes": [[["conv4_block14_1_conv", 0, 0, {}]]]}, {"name": "conv4_block14_1_relu", "config": {"name": "conv4_block14_1_relu", "trainable": false, "activation": "relu"}, "class_name": "Activation", "inbound_nodes": [[["conv4_block14_1_bn", 0, 0, {}]]]}, {"name": "conv4_block14_2_conv", "config": {"kernel_constraint": null, "bias_initializer": {"config": {}, "class_name": "Zeros"}, "activity_regularizer": null, "use_bias": false, "strides": [1, 1], "dilation_rate": [1, 1], "filters": 32, "activation": "linear", "kernel_size": [3, 3], "padding": "same", "bias_constraint": null, "trainable": false, "name": "conv4_block14_2_conv", "kernel_regularizer": null, "bias_regularizer": null, "kernel_initializer": {"config": {"distribution": "uniform", "scale": 1.0, "mode": "fan_avg", "seed": null}, "class_name": "VarianceScaling"}, "data_format": "channels_last"}, "class_name": "Conv2D", "inbound_nodes": [[["conv4_block14_1_relu", 0, 0, {}]]]}, {"name": "conv4_block14_concat", "config": {"name": "conv4_block14_concat", "axis": 3, "trainable": false}, "class_name": "Concatenate", "inbound_nodes": [[["conv4_block13_concat", 0, 0, {}], ["conv4_block14_2_conv", 0, 0, {}]]]}, {"name": "conv4_block15_0_bn", "config": {"gamma_initializer": {"config": {}, "class_name": "Ones"}, "beta_constraint": null, "momentum": 0.99, "gamma_constraint": null, "name": "conv4_block15_0_bn", "epsilon": 1.001e-05, "gamma_regularizer": null, "trainable": false, "beta_initializer": {"config": {}, "class_name": "Zeros"}, "beta_regularizer": null, "axis": 3, "moving_mean_initializer": {"config": {}, "class_name": "Zeros"}, "center": true, "moving_variance_initializer": {"config": {}, "class_name": "Ones"}, "scale": true}, "class_name": "BatchNormalization", "inbound_nodes": [[["conv4_block14_concat", 0, 0, {}]]]}, {"name": "conv4_block15_0_relu", "config": {"name": "conv4_block15_0_relu", "trainable": false, "activation": "relu"}, "class_name": "Activation", "inbound_nodes": [[["conv4_block15_0_bn", 0, 0, {}]]]}, {"name": "conv4_block15_1_conv", "config": {"kernel_constraint": null, "bias_initializer": {"config": {}, "class_name": "Zeros"}, "activity_regularizer": null, "use_bias": false, "strides": [1, 1], "dilation_rate": [1, 1], "filters": 128, "activation": "linear", "kernel_size": [1, 1], "padding": "valid", "bias_constraint": null, "trainable": false, "name": "conv4_block15_1_conv", "kernel_regularizer": null, "bias_regularizer": null, "kernel_initializer": {"config": {"distribution": "uniform", "scale": 1.0, "mode": "fan_avg", "seed": null}, "class_name": "VarianceScaling"}, "data_format": "channels_last"}, "class_name": "Conv2D", "inbound_nodes": [[["conv4_block15_0_relu", 0, 0, {}]]]}, {"name": "conv4_block15_1_bn", "config": {"gamma_initializer": {"config": {}, "class_name": "Ones"}, "beta_constraint": null, "momentum": 0.99, "gamma_constraint": null, "name": "conv4_block15_1_bn", "epsilon": 1.001e-05, "gamma_regularizer": null, "trainable": false, "beta_initializer": {"config": {}, "class_name": "Zeros"}, "beta_regularizer": null, "axis": 3, "moving_mean_initializer": {"config": {}, "class_name": "Zeros"}, "center": true, "moving_variance_initializer": {"config": {}, "class_name": "Ones"}, "scale": true}, "class_name": "BatchNormalization", "inbound_nodes": [[["conv4_block15_1_conv", 0, 0, {}]]]}, {"name": "conv4_block15_1_relu", "config": {"name": "conv4_block15_1_relu", "trainable": false, "activation": "relu"}, "class_name": "Activation", "inbound_nodes": [[["conv4_block15_1_bn", 0, 0, {}]]]}, {"name": "conv4_block15_2_conv", "config": {"kernel_constraint": null, "bias_initializer": {"config": {}, "class_name": "Zeros"}, "activity_regularizer": null, "use_bias": false, "strides": [1, 1], "dilation_rate": [1, 1], "filters": 32, "activation": "linear", "kernel_size": [3, 3], "padding": "same", "bias_constraint": null, "trainable": false, "name": "conv4_block15_2_conv", "kernel_regularizer": null, "bias_regularizer": null, "kernel_initializer": {"config": {"distribution": "uniform", "scale": 1.0, "mode": "fan_avg", "seed": null}, "class_name": "VarianceScaling"}, "data_format": "channels_last"}, "class_name": "Conv2D", "inbound_nodes": [[["conv4_block15_1_relu", 0, 0, {}]]]}, {"name": "conv4_block15_concat", "config": {"name": "conv4_block15_concat", "axis": 3, "trainable": false}, "class_name": "Concatenate", "inbound_nodes": [[["conv4_block14_concat", 0, 0, {}], ["conv4_block15_2_conv", 0, 0, {}]]]}, {"name": "conv4_block16_0_bn", "config": {"gamma_initializer": {"config": {}, "class_name": "Ones"}, "beta_constraint": null, "momentum": 0.99, "gamma_constraint": null, "name": "conv4_block16_0_bn", "epsilon": 1.001e-05, "gamma_regularizer": null, "trainable": false, "beta_initializer": {"config": {}, "class_name": "Zeros"}, "beta_regularizer": null, "axis": 3, "moving_mean_initializer": {"config": {}, "class_name": "Zeros"}, "center": true, "moving_variance_initializer": {"config": {}, "class_name": "Ones"}, "scale": true}, "class_name": "BatchNormalization", "inbound_nodes": [[["conv4_block15_concat", 0, 0, {}]]]}, {"name": "conv4_block16_0_relu", "config": {"name": "conv4_block16_0_relu", "trainable": false, "activation": "relu"}, "class_name": "Activation", "inbound_nodes": [[["conv4_block16_0_bn", 0, 0, {}]]]}, {"name": "conv4_block16_1_conv", "config": {"kernel_constraint": null, "bias_initializer": {"config": {}, "class_name": "Zeros"}, "activity_regularizer": null, "use_bias": false, "strides": [1, 1], "dilation_rate": [1, 1], "filters": 128, "activation": "linear", "kernel_size": [1, 1], "padding": "valid", "bias_constraint": null, "trainable": false, "name": "conv4_block16_1_conv", "kernel_regularizer": null, "bias_regularizer": null, "kernel_initializer": {"config": {"distribution": "uniform", "scale": 1.0, "mode": "fan_avg", "seed": null}, "class_name": "VarianceScaling"}, "data_format": "channels_last"}, "class_name": "Conv2D", "inbound_nodes": [[["conv4_block16_0_relu", 0, 0, {}]]]}, {"name": "conv4_block16_1_bn", "config": {"gamma_initializer": {"config": {}, "class_name": "Ones"}, "beta_constraint": null, "momentum": 0.99, "gamma_constraint": null, "name": "conv4_block16_1_bn", "epsilon": 1.001e-05, "gamma_regularizer": null, "trainable": false, "beta_initializer": {"config": {}, "class_name": "Zeros"}, "beta_regularizer": null, "axis": 3, "moving_mean_initializer": {"config": {}, "class_name": "Zeros"}, "center": true, "moving_variance_initializer": {"config": {}, "class_name": "Ones"}, "scale": true}, "class_name": "BatchNormalization", "inbound_nodes": [[["conv4_block16_1_conv", 0, 0, {}]]]}, {"name": "conv4_block16_1_relu", "config": {"name": "conv4_block16_1_relu", "trainable": false, "activation": "relu"}, "class_name": "Activation", "inbound_nodes": [[["conv4_block16_1_bn", 0, 0, {}]]]}, {"name": "conv4_block16_2_conv", "config": {"kernel_constraint": null, "bias_initializer": {"config": {}, "class_name": "Zeros"}, "activity_regularizer": null, "use_bias": false, "strides": [1, 1], "dilation_rate": [1, 1], "filters": 32, "activation": "linear", "kernel_size": [3, 3], "padding": "same", "bias_constraint": null, "trainable": false, "name": "conv4_block16_2_conv", "kernel_regularizer": null, "bias_regularizer": null, "kernel_initializer": {"config": {"distribution": "uniform", "scale": 1.0, "mode": "fan_avg", "seed": null}, "class_name": "VarianceScaling"}, "data_format": "channels_last"}, "class_name": "Conv2D", "inbound_nodes": [[["conv4_block16_1_relu", 0, 0, {}]]]}, {"name": "conv4_block16_concat", "config": {"name": "conv4_block16_concat", "axis": 3, "trainable": false}, "class_name": "Concatenate", "inbound_nodes": [[["conv4_block15_concat", 0, 0, {}], ["conv4_block16_2_conv", 0, 0, {}]]]}, {"name": "conv4_block17_0_bn", "config": {"gamma_initializer": {"config": {}, "class_name": "Ones"}, "beta_constraint": null, "momentum": 0.99, "gamma_constraint": null, "name": "conv4_block17_0_bn", "epsilon": 1.001e-05, "gamma_regularizer": null, "trainable": false, "beta_initializer": {"config": {}, "class_name": "Zeros"}, "beta_regularizer": null, "axis": 3, "moving_mean_initializer": {"config": {}, "class_name": "Zeros"}, "center": true, "moving_variance_initializer": {"config": {}, "class_name": "Ones"}, "scale": true}, "class_name": "BatchNormalization", "inbound_nodes": [[["conv4_block16_concat", 0, 0, {}]]]}, {"name": "conv4_block17_0_relu", "config": {"name": "conv4_block17_0_relu", "trainable": false, "activation": "relu"}, "class_name": "Activation", "inbound_nodes": [[["conv4_block17_0_bn", 0, 0, {}]]]}, {"name": "conv4_block17_1_conv", "config": {"kernel_constraint": null, "bias_initializer": {"config": {}, "class_name": "Zeros"}, "activity_regularizer": null, "use_bias": false, "strides": [1, 1], "dilation_rate": [1, 1], "filters": 128, "activation": "linear", "kernel_size": [1, 1], "padding": "valid", "bias_constraint": null, "trainable": false, "name": "conv4_block17_1_conv", "kernel_regularizer": null, "bias_regularizer": null, "kernel_initializer": {"config": {"distribution": "uniform", "scale": 1.0, "mode": "fan_avg", "seed": null}, "class_name": "VarianceScaling"}, "data_format": "channels_last"}, "class_name": "Conv2D", "inbound_nodes": [[["conv4_block17_0_relu", 0, 0, {}]]]}, {"name": "conv4_block17_1_bn", "config": {"gamma_initializer": {"config": {}, "class_name": "Ones"}, "beta_constraint": null, "momentum": 0.99, "gamma_constraint": null, "name": "conv4_block17_1_bn", "epsilon": 1.001e-05, "gamma_regularizer": null, "trainable": false, "beta_initializer": {"config": {}, "class_name": "Zeros"}, "beta_regularizer": null, "axis": 3, "moving_mean_initializer": {"config": {}, "class_name": "Zeros"}, "center": true, "moving_variance_initializer": {"config": {}, "class_name": "Ones"}, "scale": true}, "class_name": "BatchNormalization", "inbound_nodes": [[["conv4_block17_1_conv", 0, 0, {}]]]}, {"name": "conv4_block17_1_relu", "config": {"name": "conv4_block17_1_relu", "trainable": false, "activation": "relu"}, "class_name": "Activation", "inbound_nodes": [[["conv4_block17_1_bn", 0, 0, {}]]]}, {"name": "conv4_block17_2_conv", "config": {"kernel_constraint": null, "bias_initializer": {"config": {}, "class_name": "Zeros"}, "activity_regularizer": null, "use_bias": false, "strides": [1, 1], "dilation_rate": [1, 1], "filters": 32, "activation": "linear", "kernel_size": [3, 3], "padding": "same", "bias_constraint": null, "trainable": false, "name": "conv4_block17_2_conv", "kernel_regularizer": null, "bias_regularizer": null, "kernel_initializer": {"config": {"distribution": "uniform", "scale": 1.0, "mode": "fan_avg", "seed": null}, "class_name": "VarianceScaling"}, "data_format": "channels_last"}, "class_name": "Conv2D", "inbound_nodes": [[["conv4_block17_1_relu", 0, 0, {}]]]}, {"name": "conv4_block17_concat", "config": {"name": "conv4_block17_concat", "axis": 3, "trainable": false}, "class_name": "Concatenate", "inbound_nodes": [[["conv4_block16_concat", 0, 0, {}], ["conv4_block17_2_conv", 0, 0, {}]]]}, {"name": "conv4_block18_0_bn", "config": {"gamma_initializer": {"config": {}, "class_name": "Ones"}, "beta_constraint": null, "momentum": 0.99, "gamma_constraint": null, "name": "conv4_block18_0_bn", "epsilon": 1.001e-05, "gamma_regularizer": null, "trainable": false, "beta_initializer": {"config": {}, "class_name": "Zeros"}, "beta_regularizer": null, "axis": 3, "moving_mean_initializer": {"config": {}, "class_name": "Zeros"}, "center": true, "moving_variance_initializer": {"config": {}, "class_name": "Ones"}, "scale": true}, "class_name": "BatchNormalization", "inbound_nodes": [[["conv4_block17_concat", 0, 0, {}]]]}, {"name": "conv4_block18_0_relu", "config": {"name": "conv4_block18_0_relu", "trainable": false, "activation": "relu"}, "class_name": "Activation", "inbound_nodes": [[["conv4_block18_0_bn", 0, 0, {}]]]}, {"name": "conv4_block18_1_conv", "config": {"kernel_constraint": null, "bias_initializer": {"config": {}, "class_name": "Zeros"}, "activity_regularizer": null, "use_bias": false, "strides": [1, 1], "dilation_rate": [1, 1], "filters": 128, "activation": "linear", "kernel_size": [1, 1], "padding": "valid", "bias_constraint": null, "trainable": false, "name": "conv4_block18_1_conv", "kernel_regularizer": null, "bias_regularizer": null, "kernel_initializer": {"config": {"distribution": "uniform", "scale": 1.0, "mode": "fan_avg", "seed": null}, "class_name": "VarianceScaling"}, "data_format": "channels_last"}, "class_name": "Conv2D", "inbound_nodes": [[["conv4_block18_0_relu", 0, 0, {}]]]}, {"name": "conv4_block18_1_bn", "config": {"gamma_initializer": {"config": {}, "class_name": "Ones"}, "beta_constraint": null, "momentum": 0.99, "gamma_constraint": null, "name": "conv4_block18_1_bn", "epsilon": 1.001e-05, "gamma_regularizer": null, "trainable": false, "beta_initializer": {"config": {}, "class_name": "Zeros"}, "beta_regularizer": null, "axis": 3, "moving_mean_initializer": {"config": {}, "class_name": "Zeros"}, "center": true, "moving_variance_initializer": {"config": {}, "class_name": "Ones"}, "scale": true}, "class_name": "BatchNormalization", "inbound_nodes": [[["conv4_block18_1_conv", 0, 0, {}]]]}, {"name": "conv4_block18_1_relu", "config": {"name": "conv4_block18_1_relu", "trainable": false, "activation": "relu"}, "class_name": "Activation", "inbound_nodes": [[["conv4_block18_1_bn", 0, 0, {}]]]}, {"name": "conv4_block18_2_conv", "config": {"kernel_constraint": null, "bias_initializer": {"config": {}, "class_name": "Zeros"}, "activity_regularizer": null, "use_bias": false, "strides": [1, 1], "dilation_rate": [1, 1], "filters": 32, "activation": "linear", "kernel_size": [3, 3], "padding": "same", "bias_constraint": null, "trainable": false, "name": "conv4_block18_2_conv", "kernel_regularizer": null, "bias_regularizer": null, "kernel_initializer": {"config": {"distribution": "uniform", "scale": 1.0, "mode": "fan_avg", "seed": null}, "class_name": "VarianceScaling"}, "data_format": "channels_last"}, "class_name": "Conv2D", "inbound_nodes": [[["conv4_block18_1_relu", 0, 0, {}]]]}, {"name": "conv4_block18_concat", "config": {"name": "conv4_block18_concat", "axis": 3, "trainable": false}, "class_name": "Concatenate", "inbound_nodes": [[["conv4_block17_concat", 0, 0, {}], ["conv4_block18_2_conv", 0, 0, {}]]]}, {"name": "conv4_block19_0_bn", "config": {"gamma_initializer": {"config": {}, "class_name": "Ones"}, "beta_constraint": null, "momentum": 0.99, "gamma_constraint": null, "name": "conv4_block19_0_bn", "epsilon": 1.001e-05, "gamma_regularizer": null, "trainable": false, "beta_initializer": {"config": {}, "class_name": "Zeros"}, "beta_regularizer": null, "axis": 3, "moving_mean_initializer": {"config": {}, "class_name": "Zeros"}, "center": true, "moving_variance_initializer": {"config": {}, "class_name": "Ones"}, "scale": true}, "class_name": "BatchNormalization", "inbound_nodes": [[["conv4_block18_concat", 0, 0, {}]]]}, {"name": "conv4_block19_0_relu", "config": {"name": "conv4_block19_0_relu", "trainable": false, "activation": "relu"}, "class_name": "Activation", "inbound_nodes": [[["conv4_block19_0_bn", 0, 0, {}]]]}, {"name": "conv4_block19_1_conv", "config": {"kernel_constraint": null, "bias_initializer": {"config": {}, "class_name": "Zeros"}, "activity_regularizer": null, "use_bias": false, "strides": [1, 1], "dilation_rate": [1, 1], "filters": 128, "activation": "linear", "kernel_size": [1, 1], "padding": "valid", "bias_constraint": null, "trainable": false, "name": "conv4_block19_1_conv", "kernel_regularizer": null, "bias_regularizer": null, "kernel_initializer": {"config": {"distribution": "uniform", "scale": 1.0, "mode": "fan_avg", "seed": null}, "class_name": "VarianceScaling"}, "data_format": "channels_last"}, "class_name": "Conv2D", "inbound_nodes": [[["conv4_block19_0_relu", 0, 0, {}]]]}, {"name": "conv4_block19_1_bn", "config": {"gamma_initializer": {"config": {}, "class_name": "Ones"}, "beta_constraint": null, "momentum": 0.99, "gamma_constraint": null, "name": "conv4_block19_1_bn", "epsilon": 1.001e-05, "gamma_regularizer": null, "trainable": false, "beta_initializer": {"config": {}, "class_name": "Zeros"}, "beta_regularizer": null, "axis": 3, "moving_mean_initializer": {"config": {}, "class_name": "Zeros"}, "center": true, "moving_variance_initializer": {"config": {}, "class_name": "Ones"}, "scale": true}, "class_name": "BatchNormalization", "inbound_nodes": [[["conv4_block19_1_conv", 0, 0, {}]]]}, {"name": "conv4_block19_1_relu", "config": {"name": "conv4_block19_1_relu", "trainable": false, "activation": "relu"}, "class_name": "Activation", "inbound_nodes": [[["conv4_block19_1_bn", 0, 0, {}]]]}, {"name": "conv4_block19_2_conv", "config": {"kernel_constraint": null, "bias_initializer": {"config": {}, "class_name": "Zeros"}, "activity_regularizer": null, "use_bias": false, "strides": [1, 1], "dilation_rate": [1, 1], "filters": 32, "activation": "linear", "kernel_size": [3, 3], "padding": "same", "bias_constraint": null, "trainable": false, "name": "conv4_block19_2_conv", "kernel_regularizer": null, "bias_regularizer": null, "kernel_initializer": {"config": {"distribution": "uniform", "scale": 1.0, "mode": "fan_avg", "seed": null}, "class_name": "VarianceScaling"}, "data_format": "channels_last"}, "class_name": "Conv2D", "inbound_nodes": [[["conv4_block19_1_relu", 0, 0, {}]]]}, {"name": "conv4_block19_concat", "config": {"name": "conv4_block19_concat", "axis": 3, "trainable": false}, "class_name": "Concatenate", "inbound_nodes": [[["conv4_block18_concat", 0, 0, {}], ["conv4_block19_2_conv", 0, 0, {}]]]}, {"name": "conv4_block20_0_bn", "config": {"gamma_initializer": {"config": {}, "class_name": "Ones"}, "beta_constraint": null, "momentum": 0.99, "gamma_constraint": null, "name": "conv4_block20_0_bn", "epsilon": 1.001e-05, "gamma_regularizer": null, "trainable": false, "beta_initializer": {"config": {}, "class_name": "Zeros"}, "beta_regularizer": null, "axis": 3, "moving_mean_initializer": {"config": {}, "class_name": "Zeros"}, "center": true, "moving_variance_initializer": {"config": {}, "class_name": "Ones"}, "scale": true}, "class_name": "BatchNormalization", "inbound_nodes": [[["conv4_block19_concat", 0, 0, {}]]]}, {"name": "conv4_block20_0_relu", "config": {"name": "conv4_block20_0_relu", "trainable": false, "activation": "relu"}, "class_name": "Activation", "inbound_nodes": [[["conv4_block20_0_bn", 0, 0, {}]]]}, {"name": "conv4_block20_1_conv", "config": {"kernel_constraint": null, "bias_initializer": {"config": {}, "class_name": "Zeros"}, "activity_regularizer": null, "use_bias": false, "strides": [1, 1], "dilation_rate": [1, 1], "filters": 128, "activation": "linear", "kernel_size": [1, 1], "padding": "valid", "bias_constraint": null, "trainable": false, "name": "conv4_block20_1_conv", "kernel_regularizer": null, "bias_regularizer": null, "kernel_initializer": {"config": {"distribution": "uniform", "scale": 1.0, "mode": "fan_avg", "seed": null}, "class_name": "VarianceScaling"}, "data_format": "channels_last"}, "class_name": "Conv2D", "inbound_nodes": [[["conv4_block20_0_relu", 0, 0, {}]]]}, {"name": "conv4_block20_1_bn", "config": {"gamma_initializer": {"config": {}, "class_name": "Ones"}, "beta_constraint": null, "momentum": 0.99, "gamma_constraint": null, "name": "conv4_block20_1_bn", "epsilon": 1.001e-05, "gamma_regularizer": null, "trainable": false, "beta_initializer": {"config": {}, "class_name": "Zeros"}, "beta_regularizer": null, "axis": 3, "moving_mean_initializer": {"config": {}, "class_name": "Zeros"}, "center": true, "moving_variance_initializer": {"config": {}, "class_name": "Ones"}, "scale": true}, "class_name": "BatchNormalization", "inbound_nodes": [[["conv4_block20_1_conv", 0, 0, {}]]]}, {"name": "conv4_block20_1_relu", "config": {"name": "conv4_block20_1_relu", "trainable": false, "activation": "relu"}, "class_name": "Activation", "inbound_nodes": [[["conv4_block20_1_bn", 0, 0, {}]]]}, {"name": "conv4_block20_2_conv", "config": {"kernel_constraint": null, "bias_initializer": {"config": {}, "class_name": "Zeros"}, "activity_regularizer": null, "use_bias": false, "strides": [1, 1], "dilation_rate": [1, 1], "filters": 32, "activation": "linear", "kernel_size": [3, 3], "padding": "same", "bias_constraint": null, "trainable": false, "name": "conv4_block20_2_conv", "kernel_regularizer": null, "bias_regularizer": null, "kernel_initializer": {"config": {"distribution": "uniform", "scale": 1.0, "mode": "fan_avg", "seed": null}, "class_name": "VarianceScaling"}, "data_format": "channels_last"}, "class_name": "Conv2D", "inbound_nodes": [[["conv4_block20_1_relu", 0, 0, {}]]]}, {"name": "conv4_block20_concat", "config": {"name": "conv4_block20_concat", "axis": 3, "trainable": false}, "class_name": "Concatenate", "inbound_nodes": [[["conv4_block19_concat", 0, 0, {}], ["conv4_block20_2_conv", 0, 0, {}]]]}, {"name": "conv4_block21_0_bn", "config": {"gamma_initializer": {"config": {}, "class_name": "Ones"}, "beta_constraint": null, "momentum": 0.99, "gamma_constraint": null, "name": "conv4_block21_0_bn", "epsilon": 1.001e-05, "gamma_regularizer": null, "trainable": false, "beta_initializer": {"config": {}, "class_name": "Zeros"}, "beta_regularizer": null, "axis": 3, "moving_mean_initializer": {"config": {}, "class_name": "Zeros"}, "center": true, "moving_variance_initializer": {"config": {}, "class_name": "Ones"}, "scale": true}, "class_name": "BatchNormalization", "inbound_nodes": [[["conv4_block20_concat", 0, 0, {}]]]}, {"name": "conv4_block21_0_relu", "config": {"name": "conv4_block21_0_relu", "trainable": false, "activation": "relu"}, "class_name": "Activation", "inbound_nodes": [[["conv4_block21_0_bn", 0, 0, {}]]]}, {"name": "conv4_block21_1_conv", "config": {"kernel_constraint": null, "bias_initializer": {"config": {}, "class_name": "Zeros"}, "activity_regularizer": null, "use_bias": false, "strides": [1, 1], "dilation_rate": [1, 1], "filters": 128, "activation": "linear", "kernel_size": [1, 1], "padding": "valid", "bias_constraint": null, "trainable": false, "name": "conv4_block21_1_conv", "kernel_regularizer": null, "bias_regularizer": null, "kernel_initializer": {"config": {"distribution": "uniform", "scale": 1.0, "mode": "fan_avg", "seed": null}, "class_name": "VarianceScaling"}, "data_format": "channels_last"}, "class_name": "Conv2D", "inbound_nodes": [[["conv4_block21_0_relu", 0, 0, {}]]]}, {"name": "conv4_block21_1_bn", "config": {"gamma_initializer": {"config": {}, "class_name": "Ones"}, "beta_constraint": null, "momentum": 0.99, "gamma_constraint": null, "name": "conv4_block21_1_bn", "epsilon": 1.001e-05, "gamma_regularizer": null, "trainable": false, "beta_initializer": {"config": {}, "class_name": "Zeros"}, "beta_regularizer": null, "axis": 3, "moving_mean_initializer": {"config": {}, "class_name": "Zeros"}, "center": true, "moving_variance_initializer": {"config": {}, "class_name": "Ones"}, "scale": true}, "class_name": "BatchNormalization", "inbound_nodes": [[["conv4_block21_1_conv", 0, 0, {}]]]}, {"name": "conv4_block21_1_relu", "config": {"name": "conv4_block21_1_relu", "trainable": false, "activation": "relu"}, "class_name": "Activation", "inbound_nodes": [[["conv4_block21_1_bn", 0, 0, {}]]]}, {"name": "conv4_block21_2_conv", "config": {"kernel_constraint": null, "bias_initializer": {"config": {}, "class_name": "Zeros"}, "activity_regularizer": null, "use_bias": false, "strides": [1, 1], "dilation_rate": [1, 1], "filters": 32, "activation": "linear", "kernel_size": [3, 3], "padding": "same", "bias_constraint": null, "trainable": false, "name": "conv4_block21_2_conv", "kernel_regularizer": null, "bias_regularizer": null, "kernel_initializer": {"config": {"distribution": "uniform", "scale": 1.0, "mode": "fan_avg", "seed": null}, "class_name": "VarianceScaling"}, "data_format": "channels_last"}, "class_name": "Conv2D", "inbound_nodes": [[["conv4_block21_1_relu", 0, 0, {}]]]}, {"name": "conv4_block21_concat", "config": {"name": "conv4_block21_concat", "axis": 3, "trainable": false}, "class_name": "Concatenate", "inbound_nodes": [[["conv4_block20_concat", 0, 0, {}], ["conv4_block21_2_conv", 0, 0, {}]]]}, {"name": "conv4_block22_0_bn", "config": {"gamma_initializer": {"config": {}, "class_name": "Ones"}, "beta_constraint": null, "momentum": 0.99, "gamma_constraint": null, "name": "conv4_block22_0_bn", "epsilon": 1.001e-05, "gamma_regularizer": null, "trainable": false, "beta_initializer": {"config": {}, "class_name": "Zeros"}, "beta_regularizer": null, "axis": 3, "moving_mean_initializer": {"config": {}, "class_name": "Zeros"}, "center": true, "moving_variance_initializer": {"config": {}, "class_name": "Ones"}, "scale": true}, "class_name": "BatchNormalization", "inbound_nodes": [[["conv4_block21_concat", 0, 0, {}]]]}, {"name": "conv4_block22_0_relu", "config": {"name": "conv4_block22_0_relu", "trainable": false, "activation": "relu"}, "class_name": "Activation", "inbound_nodes": [[["conv4_block22_0_bn", 0, 0, {}]]]}, {"name": "conv4_block22_1_conv", "config": {"kernel_constraint": null, "bias_initializer": {"config": {}, "class_name": "Zeros"}, "activity_regularizer": null, "use_bias": false, "strides": [1, 1], "dilation_rate": [1, 1], "filters": 128, "activation": "linear", "kernel_size": [1, 1], "padding": "valid", "bias_constraint": null, "trainable": false, "name": "conv4_block22_1_conv", "kernel_regularizer": null, "bias_regularizer": null, "kernel_initializer": {"config": {"distribution": "uniform", "scale": 1.0, "mode": "fan_avg", "seed": null}, "class_name": "VarianceScaling"}, "data_format": "channels_last"}, "class_name": "Conv2D", "inbound_nodes": [[["conv4_block22_0_relu", 0, 0, {}]]]}, {"name": "conv4_block22_1_bn", "config": {"gamma_initializer": {"config": {}, "class_name": "Ones"}, "beta_constraint": null, "momentum": 0.99, "gamma_constraint": null, "name": "conv4_block22_1_bn", "epsilon": 1.001e-05, "gamma_regularizer": null, "trainable": false, "beta_initializer": {"config": {}, "class_name": "Zeros"}, "beta_regularizer": null, "axis": 3, "moving_mean_initializer": {"config": {}, "class_name": "Zeros"}, "center": true, "moving_variance_initializer": {"config": {}, "class_name": "Ones"}, "scale": true}, "class_name": "BatchNormalization", "inbound_nodes": [[["conv4_block22_1_conv", 0, 0, {}]]]}, {"name": "conv4_block22_1_relu", "config": {"name": "conv4_block22_1_relu", "trainable": false, "activation": "relu"}, "class_name": "Activation", "inbound_nodes": [[["conv4_block22_1_bn", 0, 0, {}]]]}, {"name": "conv4_block22_2_conv", "config": {"kernel_constraint": null, "bias_initializer": {"config": {}, "class_name": "Zeros"}, "activity_regularizer": null, "use_bias": false, "strides": [1, 1], "dilation_rate": [1, 1], "filters": 32, "activation": "linear", "kernel_size": [3, 3], "padding": "same", "bias_constraint": null, "trainable": false, "name": "conv4_block22_2_conv", "kernel_regularizer": null, "bias_regularizer": null, "kernel_initializer": {"config": {"distribution": "uniform", "scale": 1.0, "mode": "fan_avg", "seed": null}, "class_name": "VarianceScaling"}, "data_format": "channels_last"}, "class_name": "Conv2D", "inbound_nodes": [[["conv4_block22_1_relu", 0, 0, {}]]]}, {"name": "conv4_block22_concat", "config": {"name": "conv4_block22_concat", "axis": 3, "trainable": false}, "class_name": "Concatenate", "inbound_nodes": [[["conv4_block21_concat", 0, 0, {}], ["conv4_block22_2_conv", 0, 0, {}]]]}, {"name": "conv4_block23_0_bn", "config": {"gamma_initializer": {"config": {}, "class_name": "Ones"}, "beta_constraint": null, "momentum": 0.99, "gamma_constraint": null, "name": "conv4_block23_0_bn", "epsilon": 1.001e-05, "gamma_regularizer": null, "trainable": false, "beta_initializer": {"config": {}, "class_name": "Zeros"}, "beta_regularizer": null, "axis": 3, "moving_mean_initializer": {"config": {}, "class_name": "Zeros"}, "center": true, "moving_variance_initializer": {"config": {}, "class_name": "Ones"}, "scale": true}, "class_name": "BatchNormalization", "inbound_nodes": [[["conv4_block22_concat", 0, 0, {}]]]}, {"name": "conv4_block23_0_relu", "config": {"name": "conv4_block23_0_relu", "trainable": false, "activation": "relu"}, "class_name": "Activation", "inbound_nodes": [[["conv4_block23_0_bn", 0, 0, {}]]]}, {"name": "conv4_block23_1_conv", "config": {"kernel_constraint": null, "bias_initializer": {"config": {}, "class_name": "Zeros"}, "activity_regularizer": null, "use_bias": false, "strides": [1, 1], "dilation_rate": [1, 1], "filters": 128, "activation": "linear", "kernel_size": [1, 1], "padding": "valid", "bias_constraint": null, "trainable": false, "name": "conv4_block23_1_conv", "kernel_regularizer": null, "bias_regularizer": null, "kernel_initializer": {"config": {"distribution": "uniform", "scale": 1.0, "mode": "fan_avg", "seed": null}, "class_name": "VarianceScaling"}, "data_format": "channels_last"}, "class_name": "Conv2D", "inbound_nodes": [[["conv4_block23_0_relu", 0, 0, {}]]]}, {"name": "conv4_block23_1_bn", "config": {"gamma_initializer": {"config": {}, "class_name": "Ones"}, "beta_constraint": null, "momentum": 0.99, "gamma_constraint": null, "name": "conv4_block23_1_bn", "epsilon": 1.001e-05, "gamma_regularizer": null, "trainable": false, "beta_initializer": {"config": {}, "class_name": "Zeros"}, "beta_regularizer": null, "axis": 3, "moving_mean_initializer": {"config": {}, "class_name": "Zeros"}, "center": true, "moving_variance_initializer": {"config": {}, "class_name": "Ones"}, "scale": true}, "class_name": "BatchNormalization", "inbound_nodes": [[["conv4_block23_1_conv", 0, 0, {}]]]}, {"name": "conv4_block23_1_relu", "config": {"name": "conv4_block23_1_relu", "trainable": false, "activation": "relu"}, "class_name": "Activation", "inbound_nodes": [[["conv4_block23_1_bn", 0, 0, {}]]]}, {"name": "conv4_block23_2_conv", "config": {"kernel_constraint": null, "bias_initializer": {"config": {}, "class_name": "Zeros"}, "activity_regularizer": null, "use_bias": false, "strides": [1, 1], "dilation_rate": [1, 1], "filters": 32, "activation": "linear", "kernel_size": [3, 3], "padding": "same", "bias_constraint": null, "trainable": false, "name": "conv4_block23_2_conv", "kernel_regularizer": null, "bias_regularizer": null, "kernel_initializer": {"config": {"distribution": "uniform", "scale": 1.0, "mode": "fan_avg", "seed": null}, "class_name": "VarianceScaling"}, "data_format": "channels_last"}, "class_name": "Conv2D", "inbound_nodes": [[["conv4_block23_1_relu", 0, 0, {}]]]}, {"name": "conv4_block23_concat", "config": {"name": "conv4_block23_concat", "axis": 3, "trainable": false}, "class_name": "Concatenate", "inbound_nodes": [[["conv4_block22_concat", 0, 0, {}], ["conv4_block23_2_conv", 0, 0, {}]]]}, {"name": "conv4_block24_0_bn", "config": {"gamma_initializer": {"config": {}, "class_name": "Ones"}, "beta_constraint": null, "momentum": 0.99, "gamma_constraint": null, "name": "conv4_block24_0_bn", "epsilon": 1.001e-05, "gamma_regularizer": null, "trainable": false, "beta_initializer": {"config": {}, "class_name": "Zeros"}, "beta_regularizer": null, "axis": 3, "moving_mean_initializer": {"config": {}, "class_name": "Zeros"}, "center": true, "moving_variance_initializer": {"config": {}, "class_name": "Ones"}, "scale": true}, "class_name": "BatchNormalization", "inbound_nodes": [[["conv4_block23_concat", 0, 0, {}]]]}, {"name": "conv4_block24_0_relu", "config": {"name": "conv4_block24_0_relu", "trainable": false, "activation": "relu"}, "class_name": "Activation", "inbound_nodes": [[["conv4_block24_0_bn", 0, 0, {}]]]}, {"name": "conv4_block24_1_conv", "config": {"kernel_constraint": null, "bias_initializer": {"config": {}, "class_name": "Zeros"}, "activity_regularizer": null, "use_bias": false, "strides": [1, 1], "dilation_rate": [1, 1], "filters": 128, "activation": "linear", "kernel_size": [1, 1], "padding": "valid", "bias_constraint": null, "trainable": false, "name": "conv4_block24_1_conv", "kernel_regularizer": null, "bias_regularizer": null, "kernel_initializer": {"config": {"distribution": "uniform", "scale": 1.0, "mode": "fan_avg", "seed": null}, "class_name": "VarianceScaling"}, "data_format": "channels_last"}, "class_name": "Conv2D", "inbound_nodes": [[["conv4_block24_0_relu", 0, 0, {}]]]}, {"name": "conv4_block24_1_bn", "config": {"gamma_initializer": {"config": {}, "class_name": "Ones"}, "beta_constraint": null, "momentum": 0.99, "gamma_constraint": null, "name": "conv4_block24_1_bn", "epsilon": 1.001e-05, "gamma_regularizer": null, "trainable": false, "beta_initializer": {"config": {}, "class_name": "Zeros"}, "beta_regularizer": null, "axis": 3, "moving_mean_initializer": {"config": {}, "class_name": "Zeros"}, "center": true, "moving_variance_initializer": {"config": {}, "class_name": "Ones"}, "scale": true}, "class_name": "BatchNormalization", "inbound_nodes": [[["conv4_block24_1_conv", 0, 0, {}]]]}, {"name": "conv4_block24_1_relu", "config": {"name": "conv4_block24_1_relu", "trainable": false, "activation": "relu"}, "class_name": "Activation", "inbound_nodes": [[["conv4_block24_1_bn", 0, 0, {}]]]}, {"name": "conv4_block24_2_conv", "config": {"kernel_constraint": null, "bias_initializer": {"config": {}, "class_name": "Zeros"}, "activity_regularizer": null, "use_bias": false, "strides": [1, 1], "dilation_rate": [1, 1], "filters": 32, "activation": "linear", "kernel_size": [3, 3], "padding": "same", "bias_constraint": null, "trainable": false, "name": "conv4_block24_2_conv", "kernel_regularizer": null, "bias_regularizer": null, "kernel_initializer": {"config": {"distribution": "uniform", "scale": 1.0, "mode": "fan_avg", "seed": null}, "class_name": "VarianceScaling"}, "data_format": "channels_last"}, "class_name": "Conv2D", "inbound_nodes": [[["conv4_block24_1_relu", 0, 0, {}]]]}, {"name": "conv4_block24_concat", "config": {"name": "conv4_block24_concat", "axis": 3, "trainable": false}, "class_name": "Concatenate", "inbound_nodes": [[["conv4_block23_concat", 0, 0, {}], ["conv4_block24_2_conv", 0, 0, {}]]]}, {"name": "conv4_block25_0_bn", "config": {"gamma_initializer": {"config": {}, "class_name": "Ones"}, "beta_constraint": null, "momentum": 0.99, "gamma_constraint": null, "name": "conv4_block25_0_bn", "epsilon": 1.001e-05, "gamma_regularizer": null, "trainable": false, "beta_initializer": {"config": {}, "class_name": "Zeros"}, "beta_regularizer": null, "axis": 3, "moving_mean_initializer": {"config": {}, "class_name": "Zeros"}, "center": true, "moving_variance_initializer": {"config": {}, "class_name": "Ones"}, "scale": true}, "class_name": "BatchNormalization", "inbound_nodes": [[["conv4_block24_concat", 0, 0, {}]]]}, {"name": "conv4_block25_0_relu", "config": {"name": "conv4_block25_0_relu", "trainable": false, "activation": "relu"}, "class_name": "Activation", "inbound_nodes": [[["conv4_block25_0_bn", 0, 0, {}]]]}, {"name": "conv4_block25_1_conv", "config": {"kernel_constraint": null, "bias_initializer": {"config": {}, "class_name": "Zeros"}, "activity_regularizer": null, "use_bias": false, "strides": [1, 1], "dilation_rate": [1, 1], "filters": 128, "activation": "linear", "kernel_size": [1, 1], "padding": "valid", "bias_constraint": null, "trainable": false, "name": "conv4_block25_1_conv", "kernel_regularizer": null, "bias_regularizer": null, "kernel_initializer": {"config": {"distribution": "uniform", "scale": 1.0, "mode": "fan_avg", "seed": null}, "class_name": "VarianceScaling"}, "data_format": "channels_last"}, "class_name": "Conv2D", "inbound_nodes": [[["conv4_block25_0_relu", 0, 0, {}]]]}, {"name": "conv4_block25_1_bn", "config": {"gamma_initializer": {"config": {}, "class_name": "Ones"}, "beta_constraint": null, "momentum": 0.99, "gamma_constraint": null, "name": "conv4_block25_1_bn", "epsilon": 1.001e-05, "gamma_regularizer": null, "trainable": false, "beta_initializer": {"config": {}, "class_name": "Zeros"}, "beta_regularizer": null, "axis": 3, "moving_mean_initializer": {"config": {}, "class_name": "Zeros"}, "center": true, "moving_variance_initializer": {"config": {}, "class_name": "Ones"}, "scale": true}, "class_name": "BatchNormalization", "inbound_nodes": [[["conv4_block25_1_conv", 0, 0, {}]]]}, {"name": "conv4_block25_1_relu", "config": {"name": "conv4_block25_1_relu", "trainable": false, "activation": "relu"}, "class_name": "Activation", "inbound_nodes": [[["conv4_block25_1_bn", 0, 0, {}]]]}, {"name": "conv4_block25_2_conv", "config": {"kernel_constraint": null, "bias_initializer": {"config": {}, "class_name": "Zeros"}, "activity_regularizer": null, "use_bias": false, "strides": [1, 1], "dilation_rate": [1, 1], "filters": 32, "activation": "linear", "kernel_size": [3, 3], "padding": "same", "bias_constraint": null, "trainable": false, "name": "conv4_block25_2_conv", "kernel_regularizer": null, "bias_regularizer": null, "kernel_initializer": {"config": {"distribution": "uniform", "scale": 1.0, "mode": "fan_avg", "seed": null}, "class_name": "VarianceScaling"}, "data_format": "channels_last"}, "class_name": "Conv2D", "inbound_nodes": [[["conv4_block25_1_relu", 0, 0, {}]]]}, {"name": "conv4_block25_concat", "config": {"name": "conv4_block25_concat", "axis": 3, "trainable": false}, "class_name": "Concatenate", "inbound_nodes": [[["conv4_block24_concat", 0, 0, {}], ["conv4_block25_2_conv", 0, 0, {}]]]}, {"name": "conv4_block26_0_bn", "config": {"gamma_initializer": {"config": {}, "class_name": "Ones"}, "beta_constraint": null, "momentum": 0.99, "gamma_constraint": null, "name": "conv4_block26_0_bn", "epsilon": 1.001e-05, "gamma_regularizer": null, "trainable": false, "beta_initializer": {"config": {}, "class_name": "Zeros"}, "beta_regularizer": null, "axis": 3, "moving_mean_initializer": {"config": {}, "class_name": "Zeros"}, "center": true, "moving_variance_initializer": {"config": {}, "class_name": "Ones"}, "scale": true}, "class_name": "BatchNormalization", "inbound_nodes": [[["conv4_block25_concat", 0, 0, {}]]]}, {"name": "conv4_block26_0_relu", "config": {"name": "conv4_block26_0_relu", "trainable": false, "activation": "relu"}, "class_name": "Activation", "inbound_nodes": [[["conv4_block26_0_bn", 0, 0, {}]]]}, {"name": "conv4_block26_1_conv", "config": {"kernel_constraint": null, "bias_initializer": {"config": {}, "class_name": "Zeros"}, "activity_regularizer": null, "use_bias": false, "strides": [1, 1], "dilation_rate": [1, 1], "filters": 128, "activation": "linear", "kernel_size": [1, 1], "padding": "valid", "bias_constraint": null, "trainable": false, "name": "conv4_block26_1_conv", "kernel_regularizer": null, "bias_regularizer": null, "kernel_initializer": {"config": {"distribution": "uniform", "scale": 1.0, "mode": "fan_avg", "seed": null}, "class_name": "VarianceScaling"}, "data_format": "channels_last"}, "class_name": "Conv2D", "inbound_nodes": [[["conv4_block26_0_relu", 0, 0, {}]]]}, {"name": "conv4_block26_1_bn", "config": {"gamma_initializer": {"config": {}, "class_name": "Ones"}, "beta_constraint": null, "momentum": 0.99, "gamma_constraint": null, "name": "conv4_block26_1_bn", "epsilon": 1.001e-05, "gamma_regularizer": null, "trainable": false, "beta_initializer": {"config": {}, "class_name": "Zeros"}, "beta_regularizer": null, "axis": 3, "moving_mean_initializer": {"config": {}, "class_name": "Zeros"}, "center": true, "moving_variance_initializer": {"config": {}, "class_name": "Ones"}, "scale": true}, "class_name": "BatchNormalization", "inbound_nodes": [[["conv4_block26_1_conv", 0, 0, {}]]]}, {"name": "conv4_block26_1_relu", "config": {"name": "conv4_block26_1_relu", "trainable": false, "activation": "relu"}, "class_name": "Activation", "inbound_nodes": [[["conv4_block26_1_bn", 0, 0, {}]]]}, {"name": "conv4_block26_2_conv", "config": {"kernel_constraint": null, "bias_initializer": {"config": {}, "class_name": "Zeros"}, "activity_regularizer": null, "use_bias": false, "strides": [1, 1], "dilation_rate": [1, 1], "filters": 32, "activation": "linear", "kernel_size": [3, 3], "padding": "same", "bias_constraint": null, "trainable": false, "name": "conv4_block26_2_conv", "kernel_regularizer": null, "bias_regularizer": null, "kernel_initializer": {"config": {"distribution": "uniform", "scale": 1.0, "mode": "fan_avg", "seed": null}, "class_name": "VarianceScaling"}, "data_format": "channels_last"}, "class_name": "Conv2D", "inbound_nodes": [[["conv4_block26_1_relu", 0, 0, {}]]]}, {"name": "conv4_block26_concat", "config": {"name": "conv4_block26_concat", "axis": 3, "trainable": false}, "class_name": "Concatenate", "inbound_nodes": [[["conv4_block25_concat", 0, 0, {}], ["conv4_block26_2_conv", 0, 0, {}]]]}, {"name": "conv4_block27_0_bn", "config": {"gamma_initializer": {"config": {}, "class_name": "Ones"}, "beta_constraint": null, "momentum": 0.99, "gamma_constraint": null, "name": "conv4_block27_0_bn", "epsilon": 1.001e-05, "gamma_regularizer": null, "trainable": false, "beta_initializer": {"config": {}, "class_name": "Zeros"}, "beta_regularizer": null, "axis": 3, "moving_mean_initializer": {"config": {}, "class_name": "Zeros"}, "center": true, "moving_variance_initializer": {"config": {}, "class_name": "Ones"}, "scale": true}, "class_name": "BatchNormalization", "inbound_nodes": [[["conv4_block26_concat", 0, 0, {}]]]}, {"name": "conv4_block27_0_relu", "config": {"name": "…
anceScaling"}, "data_format": "channels_last"}, "class_name": "Conv2D", "inbound_nodes": [[["conv5_block18_1_relu", 0, 0, {}]]]}, {"name": "conv5_block18_concat", "config": {"name": "conv5_block18_concat", "axis": 3, "trainable": false}, "class_name": "Concatenate", "inbound_nodes": [[["conv5_block17_concat", 0, 0, {}], ["conv5_block18_2_conv", 0, 0, {}]]]}, {"name": "conv5_block19_0_bn", "config": {"gamma_initializer": {"config": {}, "class_name": "Ones"}, "beta_constraint": null, "momentum": 0.99, "gamma_constraint": null, "name": "conv5_block19_0_bn", "epsilon": 1.001e-05, "gamma_regularizer": null, "trainable": false, "beta_initializer": {"config": {}, "class_name": "Zeros"}, "beta_regularizer": null, "axis": 3, "moving_mean_initializer": {"config": {}, "class_name": "Zeros"}, "center": true, "moving_variance_initializer": {"config": {}, "class_name": "Ones"}, "scale": true}, "class_name": "BatchNormalization", "inbound_nodes": [[["conv5_block18_concat", 0, 0, {}]]]}, {"name": "conv5_block19_0_relu", "config": {"name": "conv5_block19_0_relu", "trainable": false, "activation": "relu"}, "class_name": "Activation", "inbound_nodes": [[["conv5_block19_0_bn", 0, 0, {}]]]}, {"name": "conv5_block19_1_conv", "config": {"kernel_constraint": null, "bias_initializer": {"config": {}, "class_name": "Zeros"}, "activity_regularizer": null, "use_bias": false, "strides": [1, 1], "dilation_rate": [1, 1], "filters": 128, "activation": "linear", "kernel_size": [1, 1], "padding": "valid", "bias_constraint": null, "trainable": false, "name": "conv5_block19_1_conv", "kernel_regularizer": null, "bias_regularizer": null, "kernel_initializer": {"config": {"distribution": "uniform", "scale": 1.0, "mode": "fan_avg", "seed": null}, "class_name": "VarianceScaling"}, "data_format": "channels_last"}, "class_name": "Conv2D", "inbound_nodes": [[["conv5_block19_0_relu", 0, 0, {}]]]}, {"name": "conv5_block19_1_bn", "config": {"gamma_initializer": {"config": {}, "class_name": "Ones"}, "beta_constraint": null, "momentum": 0.99, "gamma_constraint": null, "name": "conv5_block19_1_bn", "epsilon": 1.001e-05, "gamma_regularizer": null, "trainable": false, "beta_initializer": {"config": {}, "class_name": "Zeros"}, "beta_regularizer": null, "axis": 3, "moving_mean_initializer": {"config": {}, "class_name": "Zeros"}, "center": true, "moving_variance_initializer": {"config": {}, "class_name": "Ones"}, "scale": true}, "class_name": "BatchNormalization", "inbound_nodes": [[["conv5_block19_1_conv", 0, 0, {}]]]}, {"name": "conv5_block19_1_relu", "config": {"name": "conv5_block19_1_relu", "trainable": false, "activation": "relu"}, "class_name": "Activation", "inbound_nodes": [[["conv5_block19_1_bn", 0, 0, {}]]]}, {"name": "conv5_block19_2_conv", "config": {"kernel_constraint": null, "bias_initializer": {"config": {}, "class_name": "Zeros"}, "activity_regularizer": null, "use_bias": false, "strides": [1, 1], "dilation_rate": [1, 1], "filters": 32, "activation": "linear", "kernel_size": [3, 3], "padding": "same", "bias_constraint": null, "trainable": false, "name": "conv5_block19_2_conv", "kernel_regularizer": null, "bias_regularizer": null, "kernel_initializer": {"config": {"distribution": "uniform", "scale": 1.0, "mode": "fan_avg", "seed": null}, "class_name": "VarianceScaling"}, "data_format": "channels_last"}, "class_name": "Conv2D", "inbound_nodes": [[["conv5_block19_1_relu", 0, 0, {}]]]}, {"name": "conv5_block19_concat", "config": {"name": "conv5_block19_concat", "axis": 3, "trainable": false}, "class_name": "Concatenate", "inbound_nodes": [[["conv5_block18_concat", 0, 0, {}], ["conv5_block19_2_conv", 0, 0, {}]]]}, {"name": "conv5_block20_0_bn", "config": {"gamma_initializer": {"config": {}, "class_name": "Ones"}, "beta_constraint": null, "momentum": 0.99, "gamma_constraint": null, "name": "conv5_block20_0_bn", "epsilon": 1.001e-05, "gamma_regularizer": null, "trainable": false, "beta_initializer": {"config": {}, "class_name": "Zeros"}, "beta_regularizer": null, "axis": 3, "moving_mean_initializer": {"config": {}, "class_name": "Zeros"}, "center": true, "moving_variance_initializer": {"config": {}, "class_name": "Ones"}, "scale": true}, "class_name": "BatchNormalization", "inbound_nodes": [[["conv5_block19_concat", 0, 0, {}]]]}, {"name": "conv5_block20_0_relu", "config": {"name": "conv5_block20_0_relu", "trainable": false, "activation": "relu"}, "class_name": "Activation", "inbound_nodes": [[["conv5_block20_0_bn", 0, 0, {}]]]}, {"name": "conv5_block20_1_conv", "config": {"kernel_constraint": null, "bias_initializer": {"config": {}, "class_name": "Zeros"}, "activity_regularizer": null, "use_bias": false, "strides": [1, 1], "dilation_rate": [1, 1], "filters": 128, "activation": "linear", "kernel_size": [1, 1], "padding": "valid", "bias_constraint": null, "trainable": false, "name": "conv5_block20_1_conv", "kernel_regularizer": null, "bias_regularizer": null, "kernel_initializer": {"config": {"distribution": "uniform", "scale": 1.0, "mode": "fan_avg", "seed": null}, "class_name": "VarianceScaling"}, "data_format": "channels_last"}, "class_name": "Conv2D", "inbound_nodes": [[["conv5_block20_0_relu", 0, 0, {}]]]}, {"name": "conv5_block20_1_bn", "config": {"gamma_initializer": {"config": {}, "class_name": "Ones"}, "beta_constraint": null, "momentum": 0.99, "gamma_constraint": null, "name": "conv5_block20_1_bn", "epsilon": 1.001e-05, "gamma_regularizer": null, "trainable": false, "beta_initializer": {"config": {}, "class_name": "Zeros"}, "beta_regularizer": null, "axis": 3, "moving_mean_initializer": {"config": {}, "class_name": "Zeros"}, "center": true, "moving_variance_initializer": {"config": {}, "class_name": "Ones"}, "scale": true}, "class_name": "BatchNormalization", "inbound_nodes": [[["conv5_block20_1_conv", 0, 0, {}]]]}, {"name": "conv5_block20_1_relu", "config": {"name": "conv5_block20_1_relu", "trainable": false, "activation": "relu"}, "class_name": "Activation", "inbound_nodes": [[["conv5_block20_1_bn", 0, 0, {}]]]}, {"name": "conv5_block20_2_conv", "config": {"kernel_constraint": null, "bias_initializer": {"config": {}, "class_name": "Zeros"}, "activity_regularizer": null, "use_bias": false, "strides": [1, 1], "dilation_rate": [1, 1], "filters": 32, "activation": "linear", "kernel_size": [3, 3], "padding": "same", "bias_constraint": null, "trainable": false, "name": "conv5_block20_2_conv", "kernel_regularizer": null, "bias_regularizer": null, "kernel_initializer": {"config": {"distribution": "uniform", "scale": 1.0, "mode": "fan_avg", "seed": null}, "class_name": "VarianceScaling"}, "data_format": "channels_last"}, "class_name": "Conv2D", "inbound_nodes": [[["conv5_block20_1_relu", 0, 0, {}]]]}, {"name": "conv5_block20_concat", "config": {"name": "conv5_block20_concat", "axis": 3, "trainable": false}, "class_name": "Concatenate", "inbound_nodes": [[["conv5_block19_concat", 0, 0, {}], ["conv5_block20_2_conv", 0, 0, {}]]]}, {"name": "conv5_block21_0_bn", "config": {"gamma_initializer": {"config": {}, "class_name": "Ones"}, "beta_constraint": null, "momentum": 0.99, "gamma_constraint": null, "name": "conv5_block21_0_bn", "epsilon": 1.001e-05, "gamma_regularizer": null, "trainable": false, "beta_initializer": {"config": {}, "class_name": "Zeros"}, "beta_regularizer": null, "axis": 3, "moving_mean_initializer": {"config": {}, "class_name": "Zeros"}, "center": true, "moving_variance_initializer": {"config": {}, "class_name": "Ones"}, "scale": true}, "class_name": "BatchNormalization", "inbound_nodes": [[["conv5_block20_concat", 0, 0, {}]]]}, {"name": "conv5_block21_0_relu", "config": {"name": "conv5_block21_0_relu", "trainable": false, "activation": "relu"}, "class_name": "Activation", "inbound_nodes": [[["conv5_block21_0_bn", 0, 0, {}]]]}, {"name": "conv5_block21_1_conv", "config": {"kernel_constraint": null, "bias_initializer": {"config": {}, "class_name": "Zeros"}, "activity_regularizer": null, "use_bias": false, "strides": [1, 1], "dilation_rate": [1, 1], "filters": 128, "activation": "linear", "kernel_size": [1, 1], "padding": "valid", "bias_constraint": null, "trainable": false, "name": "conv5_block21_1_conv", "kernel_regularizer": null, "bias_regularizer": null, "kernel_initializer": {"config": {"distribution": "uniform", "scale": 1.0, "mode": "fan_avg", "seed": null}, "class_name": "VarianceScaling"}, "data_format": "channels_last"}, "class_name": "Conv2D", "inbound_nodes": [[["conv5_block21_0_relu", 0, 0, {}]]]}, {"name": "conv5_block21_1_bn", "config": {"gamma_initializer": {"config": {}, "class_name": "Ones"}, "beta_constraint": null, "momentum": 0.99, "gamma_constraint": null, "name": "conv5_block21_1_bn", "epsilon": 1.001e-05, "gamma_regularizer": null, "trainable": false, "beta_initializer": {"config": {}, "class_name": "Zeros"}, "beta_regularizer": null, "axis": 3, "moving_mean_initializer": {"config": {}, "class_name": "Zeros"}, "center": true, "moving_variance_initializer": {"config": {}, "class_name": "Ones"}, "scale": true}, "class_name": "BatchNormalization", "inbound_nodes": [[["conv5_block21_1_conv", 0, 0, {}]]]}, {"name": "conv5_block21_1_relu", "config": {"name": "conv5_block21_1_relu", "trainable": false, "activation": "relu"}, "class_name": "Activation", "inbound_nodes": [[["conv5_block21_1_bn", 0, 0, {}]]]}, {"name": "conv5_block21_2_conv", "config": {"kernel_constraint": null, "bias_initializer": {"config": {}, "class_name": "Zeros"}, "activity_regularizer": null, "use_bias": false, "strides": [1, 1], "dilation_rate": [1, 1], "filters": 32, "activation": "linear", "kernel_size": [3, 3], "padding": "same", "bias_constraint": null, "trainable": false, "name": "conv5_block21_2_conv", "kernel_regularizer": null, "bias_regularizer": null, "kernel_initializer": {"config": {"distribution": "uniform", "scale": 1.0, "mode": "fan_avg", "seed": null}, "class_name": "VarianceScaling"}, "data_format": "channels_last"}, "class_name": "Conv2D", "inbound_nodes": [[["conv5_block21_1_relu", 0, 0, {}]]]}, {"name": "conv5_block21_concat", "config": {"name": "conv5_block21_concat", "axis": 3, "trainable": false}, "class_name": "Concatenate", "inbound_nodes": [[["conv5_block20_concat", 0, 0, {}], ["conv5_block21_2_conv", 0, 0, {}]]]}, {"name": "conv5_block22_0_bn", "config": {"gamma_initializer": {"config": {}, "class_name": "Ones"}, "beta_constraint": null, "momentum": 0.99, "gamma_constraint": null, "name": "conv5_block22_0_bn", "epsilon": 1.001e-05, "gamma_regularizer": null, "trainable": false, "beta_initializer": {"config": {}, "class_name": "Zeros"}, "beta_regularizer": null, "axis": 3, "moving_mean_initializer": {"config": {}, "class_name": "Zeros"}, "center": true, "moving_variance_initializer": {"config": {}, "class_name": "Ones"}, "scale": true}, "class_name": "BatchNormalization", "inbound_nodes": [[["conv5_block21_concat", 0, 0, {}]]]}, {"name": "conv5_block22_0_relu", "config": {"name": "conv5_block22_0_relu", "trainable": false, "activation": "relu"}, "class_name": "Activation", "inbound_nodes": [[["conv5_block22_0_bn", 0, 0, {}]]]}, {"name": "conv5_block22_1_conv", "config": {"kernel_constraint": null, "bias_initializer": {"config": {}, "class_name": "Zeros"}, "activity_regularizer": null, "use_bias": false, "strides": [1, 1], "dilation_rate": [1, 1], "filters": 128, "activation": "linear", "kernel_size": [1, 1], "padding": "valid", "bias_constraint": null, "trainable": false, "name": "conv5_block22_1_conv", "kernel_regularizer": null, "bias_regularizer": null, "kernel_initializer": {"config": {"distribution": "uniform", "scale": 1.0, "mode": "fan_avg", "seed": null}, "class_name": "VarianceScaling"}, "data_format": "channels_last"}, "class_name": "Conv2D", "inbound_nodes": [[["conv5_block22_0_relu", 0, 0, {}]]]}, {"name": "conv5_block22_1_bn", "config": {"gamma_initializer": {"config": {}, "class_name": "Ones"}, "beta_constraint": null, "momentum": 0.99, "gamma_constraint": null, "name": "conv5_block22_1_bn", "epsilon": 1.001e-05, "gamma_regularizer": null, "trainable": false, "beta_initializer": {"config": {}, "class_name": "Zeros"}, "beta_regularizer": null, "axis": 3, "moving_mean_initializer": {"config": {}, "class_name": "Zeros"}, "center": true, "moving_variance_initializer": {"config": {}, "class_name": "Ones"}, "scale": true}, "class_name": "BatchNormalization", "inbound_nodes": [[["conv5_block22_1_conv", 0, 0, {}]]]}, {"name": "conv5_block22_1_relu", "config": {"name": "conv5_block22_1_relu", "trainable": false, "activation": "relu"}, "class_name": "Activation", "inbound_nodes": [[["conv5_block22_1_bn", 0, 0, {}]]]}, {"name": "conv5_block22_2_conv", "config": {"kernel_constraint": null, "bias_initializer": {"config": {}, "class_name": "Zeros"}, "activity_regularizer": null, "use_bias": false, "strides": [1, 1], "dilation_rate": [1, 1], "filters": 32, "activation": "linear", "kernel_size": [3, 3], "padding": "same", "bias_constraint": null, "trainable": false, "name": "conv5_block22_2_conv", "kernel_regularizer": null, "bias_regularizer": null, "kernel_initializer": {"config": {"distribution": "uniform", "scale": 1.0, "mode": "fan_avg", "seed": null}, "class_name": "VarianceScaling"}, "data_format": "channels_last"}, "class_name": "Conv2D", "inbound_nodes": [[["conv5_block22_1_relu", 0, 0, {}]]]}, {"name": "conv5_block22_concat", "config": {"name": "conv5_block22_concat", "axis": 3, "trainable": false}, "class_name": "Concatenate", "inbound_nodes": [[["conv5_block21_concat", 0, 0, {}], ["conv5_block22_2_conv", 0, 0, {}]]]}, {"name": "conv5_block23_0_bn", "config": {"gamma_initializer": {"config": {}, "class_name": "Ones"}, "beta_constraint": null, "momentum": 0.99, "gamma_constraint": null, "name": "conv5_block23_0_bn", "epsilon": 1.001e-05, "gamma_regularizer": null, "trainable": false, "beta_initializer": {"config": {}, "class_name": "Zeros"}, "beta_regularizer": null, "axis": 3, "moving_mean_initializer": {"config": {}, "class_name": "Zeros"}, "center": true, "moving_variance_initializer": {"config": {}, "class_name": "Ones"}, "scale": true}, "class_name": "BatchNormalization", "inbound_nodes": [[["conv5_block22_concat", 0, 0, {}]]]}, {"name": "conv5_block23_0_relu", "config": {"name": "conv5_block23_0_relu", "trainable": false, "activation": "relu"}, "class_name": "Activation", "inbound_nodes": [[["conv5_block23_0_bn", 0, 0, {}]]]}, {"name": "conv5_block23_1_conv", "config": {"kernel_constraint": null, "bias_initializer": {"config": {}, "class_name": "Zeros"}, "activity_regularizer": null, "use_bias": false, "strides": [1, 1], "dilation_rate": [1, 1], "filters": 128, "activation": "linear", "kernel_size": [1, 1], "padding": "valid", "bias_constraint": null, "trainable": false, "name": "conv5_block23_1_conv", "kernel_regularizer": null, "bias_regularizer": null, "kernel_initializer": {"config": {"distribution": "uniform", "scale": 1.0, "mode": "fan_avg", "seed": null}, "class_name": "VarianceScaling"}, "data_format": "channels_last"}, "class_name": "Conv2D", "inbound_nodes": [[["conv5_block23_0_relu", 0, 0, {}]]]}, {"name": "conv5_block23_1_bn", "config": {"gamma_initializer": {"config": {}, "class_name": "Ones"}, "beta_constraint": null, "momentum": 0.99, "gamma_constraint": null, "name": "conv5_block23_1_bn", "epsilon": 1.001e-05, "gamma_regularizer": null, "trainable": false, "beta_initializer": {"config": {}, "class_name": "Zeros"}, "beta_regularizer": null, "axis": 3, "moving_mean_initializer": {"config": {}, "class_name": "Zeros"}, "center": true, "moving_variance_initializer": {"config": {}, "class_name": "Ones"}, "scale": true}, "class_name": "BatchNormalization", "inbound_nodes": [[["conv5_block23_1_conv", 0, 0, {}]]]}, {"name": "conv5_block23_1_relu", "config": {"name": "conv5_block23_1_relu", "trainable": false, "activation": "relu"}, "class_name": "Activation", "inbound_nodes": [[["conv5_block23_1_bn", 0, 0, {}]]]}, {"name": "conv5_block23_2_conv", "config": {"kernel_constraint": null, "bias_initializer": {"config": {}, "class_name": "Zeros"}, "activity_regularizer": null, "use_bias": false, "strides": [1, 1], "dilation_rate": [1, 1], "filters": 32, "activation": "linear", "kernel_size": [3, 3], "padding": "same", "bias_constraint": null, "trainable": false, "name": "conv5_block23_2_conv", "kernel_regularizer": null, "bias_regularizer": null, "kernel_initializer": {"config": {"distribution": "uniform", "scale": 1.0, "mode": "fan_avg", "seed": null}, "class_name": "VarianceScaling"}, "data_format": "channels_last"}, "class_name": "Conv2D", "inbound_nodes": [[["conv5_block23_1_relu", 0, 0, {}]]]}, {"name": "conv5_block23_concat", "config": {"name": "conv5_block23_concat", "axis": 3, "trainable": false}, "class_name": "Concatenate", "inbound_nodes": [[["conv5_block22_concat", 0, 0, {}], ["conv5_block23_2_conv", 0, 0, {}]]]}, {"name": "conv5_block24_0_bn", "config": {"gamma_initializer": {"config": {}, "class_name": "Ones"}, "beta_constraint": null, "momentum": 0.99, "gamma_constraint": null, "name": "conv5_block24_0_bn", "epsilon": 1.001e-05, "gamma_regularizer": null, "trainable": false, "beta_initializer": {"config": {}, "class_name": "Zeros"}, "beta_regularizer": null, "axis": 3, "moving_mean_initializer": {"config": {}, "class_name": "Zeros"}, "center": true, "moving_variance_initializer": {"config": {}, "class_name": "Ones"}, "scale": true}, "class_name": "BatchNormalization", "inbound_nodes": [[["conv5_block23_concat", 0, 0, {}]]]}, {"name": "conv5_block24_0_relu", "config": {"name": "conv5_block24_0_relu", "trainable": false, "activation": "relu"}, "class_name": "Activation", "inbound_nodes": [[["conv5_block24_0_bn", 0, 0, {}]]]}, {"name": "conv5_block24_1_conv", "config": {"kernel_constraint": null, "bias_initializer": {"config": {}, "class_name": "Zeros"}, "activity_regularizer": null, "use_bias": false, "strides": [1, 1], "dilation_rate": [1, 1], "filters": 128, "activation": "linear", "kernel_size": [1, 1], "padding": "valid", "bias_constraint": null, "trainable": false, "name": "conv5_block24_1_conv", "kernel_regularizer": null, "bias_regularizer": null, "kernel_initializer": {"config": {"distribution": "uniform", "scale": 1.0, "mode": "fan_avg", "seed": null}, "class_name": "VarianceScaling"}, "data_format": "channels_last"}, "class_name": "Conv2D", "inbound_nodes": [[["conv5_block24_0_relu", 0, 0, {}]]]}, {"name": "conv5_block24_1_bn", "config": {"gamma_initializer": {"config": {}, "class_name": "Ones"}, "beta_constraint": null, "momentum": 0.99, "gamma_constraint": null, "name": "conv5_block24_1_bn", "epsilon": 1.001e-05, "gamma_regularizer": null, "trainable": false, "beta_initializer": {"config": {}, "class_name": "Zeros"}, "beta_regularizer": null, "axis": 3, "moving_mean_initializer": {"config": {}, "class_name": "Zeros"}, "center": true, "moving_variance_initializer": {"config": {}, "class_name": "Ones"}, "scale": true}, "class_name": "BatchNormalization", "inbound_nodes": [[["conv5_block24_1_conv", 0, 0, {}]]]}, {"name": "conv5_block24_1_relu", "config": {"name": "conv5_block24_1_relu", "trainable": false, "activation": "relu"}, "class_name": "Activation", "inbound_nodes": [[["conv5_block24_1_bn", 0, 0, {}]]]}, {"name": "conv5_block24_2_conv", "config": {"kernel_constraint": null, "bias_initializer": {"config": {}, "class_name": "Zeros"}, "activity_regularizer": null, "use_bias": false, "strides": [1, 1], "dilation_rate": [1, 1], "filters": 32, "activation": "linear", "kernel_size": [3, 3], "padding": "same", "bias_constraint": null, "trainable": false, "name": "conv5_block24_2_conv", "kernel_regularizer": null, "bias_regularizer": null, "kernel_initializer": {"config": {"distribution": "uniform", "scale": 1.0, "mode": "fan_avg", "seed": null}, "class_name": "VarianceScaling"}, "data_format": "channels_last"}, "class_name": "Conv2D", "inbound_nodes": [[["conv5_block24_1_relu", 0, 0, {}]]]}, {"name": "conv5_block24_concat", "config": {"name": "conv5_block24_concat", "axis": 3, "trainable": false}, "class_name": "Concatenate", "inbound_nodes": [[["conv5_block23_concat", 0, 0, {}], ["conv5_block24_2_conv", 0, 0, {}]]]}, {"name": "conv5_block25_0_bn", "config": {"gamma_initializer": {"config": {}, "class_name": "Ones"}, "beta_constraint": null, "momentum": 0.99, "gamma_constraint": null, "name": "conv5_block25_0_bn", "epsilon": 1.001e-05, "gamma_regularizer": null, "trainable": false, "beta_initializer": {"config": {}, "class_name": "Zeros"}, "beta_regularizer": null, "axis": 3, "moving_mean_initializer": {"config": {}, "class_name": "Zeros"}, "center": true, "moving_variance_initializer": {"config": {}, "class_name": "Ones"}, "scale": true}, "class_name": "BatchNormalization", "inbound_nodes": [[["conv5_block24_concat", 0, 0, {}]]]}, {"name": "conv5_block25_0_relu", "config": {"name": "conv5_block25_0_relu", "trainable": false, "activation": "relu"}, "class_name": "Activation", "inbound_nodes": [[["conv5_block25_0_bn", 0, 0, {}]]]}, {"name": "conv5_block25_1_conv", "config": {"kernel_constraint": null, "bias_initializer": {"config": {}, "class_name": "Zeros"}, "activity_regularizer": null, "use_bias": false, "strides": [1, 1], "dilation_rate": [1, 1], "filters": 128, "activation": "linear", "kernel_size": [1, 1], "padding": "valid", "bias_constraint": null, "trainable": false, "name": "conv5_block25_1_conv", "kernel_regularizer": null, "bias_regularizer": null, "kernel_initializer": {"config": {"distribution": "uniform", "scale": 1.0, "mode": "fan_avg", "seed": null}, "class_name": "VarianceScaling"}, "data_format": "channels_last"}, "class_name": "Conv2D", "inbound_nodes": [[["conv5_block25_0_relu", 0, 0, {}]]]}, {"name": "conv5_block25_1_bn", "config": {"gamma_initializer": {"config": {}, "class_name": "Ones"}, "beta_constraint": null, "momentum": 0.99, "gamma_constraint": null, "name": "conv5_block25_1_bn", "epsilon": 1.001e-05, "gamma_regularizer": null, "trainable": false, "beta_initializer": {"config": {}, "class_name": "Zeros"}, "beta_regularizer": null, "axis": 3, "moving_mean_initializer": {"config": {}, "class_name": "Zeros"}, "center": true, "moving_variance_initializer": {"config": {}, "class_name": "Ones"}, "scale": true}, "class_name": "BatchNormalization", "inbound_nodes": [[["conv5_block25_1_conv", 0, 0, {}]]]}, {"name": "conv5_block25_1_relu", "config": {"name": "conv5_block25_1_relu", "trainable": false, "activation": "relu"}, "class_name": "Activation", "inbound_nodes": [[["conv5_block25_1_bn", 0, 0, {}]]]}, {"name": "conv5_block25_2_conv", "config": {"kernel_constraint": null, "bias_initializer": {"config": {}, "class_name": "Zeros"}, "activity_regularizer": null, "use_bias": false, "strides": [1, 1], "dilation_rate": [1, 1], "filters": 32, "activation": "linear", "kernel_size": [3, 3], "padding": "same", "bias_constraint": null, "trainable": false, "name": "conv5_block25_2_conv", "kernel_regularizer": null, "bias_regularizer": null, "kernel_initializer": {"config": {"distribution": "uniform", "scale": 1.0, "mode": "fan_avg", "seed": null}, "class_name": "VarianceScaling"}, "data_format": "channels_last"}, "class_name": "Conv2D", "inbound_nodes": [[["conv5_block25_1_relu", 0, 0, {}]]]}, {"name": "conv5_block25_concat", "config": {"name": "conv5_block25_concat", "axis": 3, "trainable": false}, "class_name": "Concatenate", "inbound_nodes": [[["conv5_block24_concat", 0, 0, {}], ["conv5_block25_2_conv", 0, 0, {}]]]}, {"name": "conv5_block26_0_bn", "config": {"gamma_initializer": {"config": {}, "class_name": "Ones"}, "beta_constraint": null, "momentum": 0.99, "gamma_constraint": null, "name": "conv5_block26_0_bn", "epsilon": 1.001e-05, "gamma_regularizer": null, "trainable": false, "beta_initializer": {"config": {}, "class_name": "Zeros"}, "beta_regularizer": null, "axis": 3, "moving_mean_initializer": {"config": {}, "class_name": "Zeros"}, "center": true, "moving_variance_initializer": {"config": {}, "class_name": "Ones"}, "scale": true}, "class_name": "BatchNormalization", "inbound_nodes": [[["conv5_block25_concat", 0, 0, {}]]]}, {"name": "conv5_block26_0_relu", "config": {"name": "conv5_block26_0_relu", "trainable": false, "activation": "relu"}, "class_name": "Activation", "inbound_nodes": [[["conv5_block26_0_bn", 0, 0, {}]]]}, {"name": "conv5_block26_1_conv", "config": {"kernel_constraint": null, "bias_initializer": {"config": {}, "class_name": "Zeros"}, "activity_regularizer": null, "use_bias": false, "strides": [1, 1], "dilation_rate": [1, 1], "filters": 128, "activation": "linear", "kernel_size": [1, 1], "padding": "valid", "bias_constraint": null, "trainable": false, "name": "conv5_block26_1_conv", "kernel_regularizer": null, "bias_regularizer": null, "kernel_initializer": {"config": {"distribution": "uniform", "scale": 1.0, "mode": "fan_avg", "seed": null}, "class_name": "VarianceScaling"}, "data_format": "channels_last"}, "class_name": "Conv2D", "inbound_nodes": [[["conv5_block26_0_relu", 0, 0, {}]]]}, {"name": "conv5_block26_1_bn", "config": {"gamma_initializer": {"config": {}, "class_name": "Ones"}, "beta_constraint": null, "momentum": 0.99, "gamma_constraint": null, "name": "conv5_block26_1_bn", "epsilon": 1.001e-05, "gamma_regularizer": null, "trainable": false, "beta_initializer": {"config": {}, "class_name": "Zeros"}, "beta_regularizer": null, "axis": 3, "moving_mean_initializer": {"config": {}, "class_name": "Zeros"}, "center": true, "moving_variance_initializer": {"config": {}, "class_name": "Ones"}, "scale": true}, "class_name": "BatchNormalization", "inbound_nodes": [[["conv5_block26_1_conv", 0, 0, {}]]]}, {"name": "conv5_block26_1_relu", "config": {"name": "conv5_block26_1_relu", "trainable": false, "activation": "relu"}, "class_name": "Activation", "inbound_nodes": [[["conv5_block26_1_bn", 0, 0, {}]]]}, {"name": "conv5_block26_2_conv", "config": {"kernel_constraint": null, "bias_initializer": {"config": {}, "class_name": "Zeros"}, "activity_regularizer": null, "use_bias": false, "strides": [1, 1], "dilation_rate": [1, 1], "filters": 32, "activation": "linear", "kernel_size": [3, 3], "padding": "same", "bias_constraint": null, "trainable": false, "name": "conv5_block26_2_conv", "kernel_regularizer": null, "bias_regularizer": null, "kernel_initializer": {"config": {"distribution": "uniform", "scale": 1.0, "mode": "fan_avg", "seed": null}, "class_name": "VarianceScaling"}, "data_format": "channels_last"}, "class_name": "Conv2D", "inbound_nodes": [[["conv5_block26_1_relu", 0, 0, {}]]]}, {"name": "conv5_block26_concat", "config": {"name": "conv5_block26_concat", "axis": 3, "trainable": false}, "class_name": "Concatenate", "inbound_nodes": [[["conv5_block25_concat", 0, 0, {}], ["conv5_block26_2_conv", 0, 0, {}]]]}, {"name": "conv5_block27_0_bn", "config": {"gamma_initializer": {"config": {}, "class_name": "Ones"}, "beta_constraint": null, "momentum": 0.99, "gamma_constraint": null, "name": "conv5_block27_0_bn", "epsilon": 1.001e-05, "gamma_regularizer": null, "trainable": false, "beta_initializer": {"config": {}, "class_name": "Zeros"}, "beta_regularizer": null, "axis": 3, "moving_mean_initializer": {"config": {}, "class_name": "Zeros"}, "center": true, "moving_variance_initializer": {"config": {}, "class_name": "Ones"}, "scale": true}, "class_name": "BatchNormalization", "inbound_nodes": [[["conv5_block26_concat", 0, 0, {}]]]}, {"name": "conv5_block27_0_relu", "config": {"name": "conv5_block27_0_relu", "trainable": false, "activation": "relu"}, "class_name": "Activation", "inbound_nodes": [[["conv5_block27_0_bn", 0, 0, {}]]]}, {"name": "conv5_block27_1_conv", "config": {"kernel_constraint": null, "bias_initializer": {"config": {}, "class_name": "Zeros"}, "activity_regularizer": null, "use_bias": false, "strides": [1, 1], "dilation_rate": [1, 1], "filters": 128, "activation": "linear", "kernel_size": [1, 1], "padding": "valid", "bias_constraint": null, "trainable": false, "name": "conv5_block27_1_conv", "kernel_regularizer": null, "bias_regularizer": null, "kernel_initializer": {"config": {"distribution": "uniform", "scale": 1.0, "mode": "fan_avg", "seed": null}, "class_name": "VarianceScaling"}, "data_format": "channels_last"}, "class_name": "Conv2D", "inbound_nodes": [[["conv5_block27_0_relu", 0, 0, {}]]]}, {"name": "conv5_block27_1_bn", "config": {"gamma_initializer": {"config": {}, "class_name": "Ones"}, "beta_constraint": null, "momentum": 0.99, "gamma_constraint": null, "name": "conv5_block27_1_bn", "epsilon": 1.001e-05, "gamma_regularizer": null, "trainable": false, "beta_initializer": {"config": {}, "class_name": "Zeros"}, "beta_regularizer": null, "axis": 3, "moving_mean_initializer": {"config": {}, "class_name": "Zeros"}, "center": true, "moving_variance_initializer": {"config": {}, "class_name": "Ones"}, "scale": true}, "class_name": "BatchNormalization", "inbound_nodes": [[["conv5_block27_1_conv", 0, 0, {}]]]}, {"name": "conv5_block27_1_relu", "config": {"name": "conv5_block27_1_relu", "trainable": false, "activation": "relu"}, "class_name": "Activation", "inbound_nodes": [[["conv5_block27_1_bn", 0, 0, {}]]]}, {"name": "conv5_block27_2_conv", "config": {"kernel_constraint": null, "bias_initializer": {"config": {}, "class_name": "Zeros"}, "activity_regularizer": null, "use_bias": false, "strides": [1, 1], "dilation_rate": [1, 1], "filters": 32, "activation": "linear", "kernel_size": [3, 3], "padding": "same", "bias_constraint": null, "trainable": false, "name": "conv5_block27_2_conv", "kernel_regularizer": null, "bias_regularizer": null, "kernel_initializer": {"config": {"distribution": "uniform", "scale": 1.0, "mode": "fan_avg", "seed": null}, "class_name": "VarianceScaling"}, "data_format": "channels_last"}, "class_name": "Conv2D", "inbound_nodes": [[["conv5_block27_1_relu", 0, 0, {}]]]}, {"name": "conv5_block27_concat", "config": {"name": "conv5_block27_concat", "axis": 3, "trainable": false}, "class_name": "Concatenate", "inbound_nodes": [[["conv5_block26_concat", 0, 0, {}], ["conv5_block27_2_conv", 0, 0, {}]]]}, {"name": "conv5_block28_0_bn", "config": {"gamma_initializer": {"config": {}, "class_name": "Ones"}, "beta_constraint": null, "momentum": 0.99, "gamma_constraint": null, "name": "conv5_block28_0_bn", "epsilon": 1.001e-05, "gamma_regularizer": null, "trainable": false, "beta_initializer": {"config": {}, "class_name": "Zeros"}, "beta_regularizer": null, "axis": 3, "moving_mean_initializer": {"config": {}, "class_name": "Zeros"}, "center": true, "moving_variance_initializer": {"config": {}, "class_name": "Ones"}, "scale": true}, "class_name": "BatchNormalization", "inbound_nodes": [[["conv5_block27_concat", 0, 0, {}]]]}, {"name": "conv5_block28_0_relu", "config": {"name": "conv5_block28_0_relu", "trainable": false, "activation": "relu"}, "class_name": "Activation", "inbound_nodes": [[["conv5_block28_0_bn", 0, 0, {}]]]}, {"name": "conv5_block28_1_conv", "config": {"kernel_constraint": null, "bias_initializer": {"config": {}, "class_name": "Zeros"}, "activity_regularizer": null, "use_bias": false, "strides": [1, 1], "dilation_rate": [1, 1], "filters": 128, "activation": "linear", "kernel_size": [1, 1], "padding": "valid", "bias_constraint": null, "trainable": false, "name": "conv5_block28_1_conv", "kernel_regularizer": null, "bias_regularizer": null, "kernel_initializer": {"config": {"distribution": "uniform", "scale": 1.0, "mode": "fan_avg", "seed": null}, "class_name": "VarianceScaling"}, "data_format": "channels_last"}, "class_name": "Conv2D", "inbound_nodes": [[["conv5_block28_0_relu", 0, 0, {}]]]}, {"name": "conv5_block28_1_bn", "config": {"gamma_initializer": {"config": {}, "class_name": "Ones"}, "beta_constraint": null, "momentum": 0.99, "gamma_constraint": null, "name": "conv5_block28_1_bn", "epsilon": 1.001e-05, "gamma_regularizer": null, "trainable": false, "beta_initializer": {"config": {}, "class_name": "Zeros"}, "beta_regularizer": null, "axis": 3, "moving_mean_initializer": {"config": {}, "class_name": "Zeros"}, "center": true, "moving_variance_initializer": {"config": {}, "class_name": "Ones"}, "scale": true}, "class_name": "BatchNormalization", "inbound_nodes": [[["conv5_block28_1_conv", 0, 0, {}]]]}, {"name": "conv5_block28_1_relu", "config": {"name": "conv5_block28_1_relu", "trainable": false, "activation": "relu"}, "class_name": "Activation", "inbound_nodes": [[["conv5_block28_1_bn", 0, 0, {}]]]}, {"name": "conv5_block28_2_conv", "config": {"kernel_constraint": null, "bias_initializer": {"config": {}, "class_name": "Zeros"}, "activity_regularizer": null, "use_bias": false, "strides": [1, 1], "dilation_rate": [1, 1], "filters": 32, "activation": "linear", "kernel_size": [3, 3], "padding": "same", "bias_constraint": null, "trainable": false, "name": "conv5_block28_2_conv", "kernel_regularizer": null, "bias_regularizer": null, "kernel_initializer": {"config": {"distribution": "uniform", "scale": 1.0, "mode": "fan_avg", "seed": null}, "class_name": "VarianceScaling"}, "data_format": "channels_last"}, "class_name": "Conv2D", "inbound_nodes": [[["conv5_block28_1_relu", 0, 0, {}]]]}, {"name": "conv5_block28_concat", "config": {"name": "conv5_block28_concat", "axis": 3, "trainable": false}, "class_name": "Concatenate", "inbound_nodes": [[["conv5_block27_concat", 0, 0, {}], ["conv5_block28_2_conv", 0, 0, {}]]]}, {"name": "conv5_block29_0_bn", "config": {"gamma_initializer": {"config": {}, "class_name": "Ones"}, "beta_constraint": null, "momentum": 0.99, "gamma_constraint": null, "name": "conv5_block29_0_bn", "epsilon": 1.001e-05, "gamma_regularizer": null, "trainable": false, "beta_initializer": {"config": {}, "class_name": "Zeros"}, "beta_regularizer": null, "axis": 3, "moving_mean_initializer": {"config": {}, "class_name": "Zeros"}, "center": true, "moving_variance_initializer": {"config": {}, "class_name": "Ones"}, "scale": true}, "class_name": "BatchNormalization", "inbound_nodes": [[["conv5_block28_concat", 0, 0, {}]]]}, {"name": "conv5_block29_0_relu", "config": {"name": "conv5_block29_0_relu", "trainable": false, "activation": "relu"}, "class_name": "Activation", "inbound_nodes": [[["conv5_block29_0_bn", 0, 0, {}]]]}, {"name": "conv5_block29_1_conv", "config": {"kernel_constraint": null, "bias_initializer": {"config": {}, "class_name": "Zeros"}, "activity_regularizer": null, "use_bias": false, "strides": [1, 1], "dilation_rate": [1, 1], "filters": 128, "activation": "linear", "kernel_size": [1, 1], "padding": "valid", "bias_constraint": null, "trainable": false, "name": "conv5_block29_1_conv", "kernel_regularizer": null, "bias_regularizer": null, "kernel_initializer": {"config": {"distribution": "uniform", "scale": 1.0, "mode": "fan_avg", "seed": null}, "class_name": "VarianceScaling"}, "data_format": "channels_last"}, "class_name": "Conv2D", "inbound_nodes": [[["conv5_block29_0_relu", 0, 0, {}]]]}, {"name": "conv5_block29_1_bn", "config": {"gamma_initializer": {"config": {}, "class_name": "Ones"}, "beta_constraint": null, "momentum": 0.99, "gamma_constraint": null, "name": "conv5_block29_1_bn", "epsilon": 1.001e-05, "gamma_regularizer": null, "trainable": false, "beta_initializer": {"config": {}, "class_name": "Zeros"}, "beta_regularizer": null, "axis": 3, "moving_mean_initializer": {"config": {}, "class_name": "Zeros"}, "center": true, "moving_variance_initializer": {"config": {}, "class_name": "Ones"}, "scale": true}, "class_name": "BatchNormalization", "inbound_nodes": [[["conv5_block29_1_conv", 0, 0, {}]]]}, {"name": "conv5_block29_1_relu", "config": {"name": "conv5_block29_1_relu", "trainable": false, "activation": "relu"}, "class_name": "Activation", "inbound_nodes": [[["conv5_block29_1_bn", 0, 0, {}]]]}, {"name": "conv5_block29_2_conv", "config": {"kernel_constraint": null, "bias_initializer": {"config": {}, "class_name": "Zeros"}, "activity_regularizer": null, "use_bias": false, "strides": [1, 1], "dilation_rate": [1, 1], "filters": 32, "activation": "linear", "kernel_size": [3, 3], "padding": "same", "bias_constraint": null, "trainable": false, "name": "conv5_block29_2_conv", "kernel_regularizer": null, "bias_regularizer": null, "kernel_initializer": {"config": {"distribution": "uniform", "scale": 1.0, "mode": "fan_avg", "seed": null}, "class_name": "VarianceScaling"}, "data_format": "channels_last"}, "class_name": "Conv2D", "inbound_nodes": [[["conv5_block29_1_relu", 0, 0, {}]]]}, {"name": "conv5_block29_concat", "config": {"name": "conv5_block29_concat", "axis": 3, "trainable": false}, "class_name": "Concatenate", "inbound_nodes": [[["conv5_block28_concat", 0, 0, {}], ["conv5_block29_2_conv", 0, 0, {}]]]}, {"name": "conv5_block30_0_bn", "config": {"gamma_initializer": {"config": {}, "class_name": "Ones"}, "beta_constraint": null, "momentum": 0.99, "gamma_constraint": null, "name": "conv5_block30_0_bn", "epsilon": 1.001e-05, "gamma_regularizer": null, "trainable": false, "beta_initializer": {"config": {}, "class_name": "Zeros"}, "beta_regularizer": null, "axis": 3, "moving_mean_initializer": {"config": {}, "class_name": "Zeros"}, "center": true, "moving_variance_initializer": {"config": {}, "class_name": "Ones"}, "scale": true}, "class_name": "BatchNormalization", "inbound_nodes": [[["conv5_block29_concat", 0, 0, {}]]]}, {"name": "conv5_block30_0_relu", "config": {"name": "conv5_block30_0_relu", "trainable": false, "activation": "relu"}, "class_name": "Activation", "inbound_nodes": [[["conv5_block30_0_bn", 0, 0, {}]]]}, {"name": "conv5_block30_1_conv", "config": {"kernel_constraint": null, "bias_initializer": {"config": {}, "class_name": "Zeros"}, "activity_regularizer": null, "use_bias": false, "strides": [1, 1], "dilation_rate": [1, 1], "filters": 128, "activation": "linear", "kernel_size": [1, 1], "padding": "valid", "bias_constraint": null, "trainable": false, "name": "conv5_block30_1_conv", "kernel_regularizer": null, "bias_regularizer": null, "kernel_initializer": {"config": {"distribution": "uniform", "scale": 1.0, "mode": "fan_avg", "seed": null}, "class_name": "VarianceScaling"}, "data_format": "channels_last"}, "class_name": "Conv2D", "inbound_nodes": [[["conv5_block30_0_relu", 0, 0, {}]]]}, {"name": "conv5_block30_1_bn", "config": {"gamma_initializer": {"config": {}, "class_name": "Ones"}, "beta_constraint": null, "momentum": 0.99, "gamma_constraint": null, "name": "conv5_block30_1_bn", "epsilon": 1.001e-05, "gamma_regularizer": null, "trainable": false, "beta_initializer": {"config": {}, "class_name": "Zeros"}, "beta_regularizer": null, "axis": 3, "moving_mean_initializer": {"config": {}, "class_name": "Zeros"}, "center": true, "moving_variance_initializer": {"config": {}, "class_name": "Ones"}, "scale": true}, "class_name": "BatchNormalization", "inbound_nodes": [[["conv5_block30_1_conv", 0, 0, {}]]]}, {"name": "conv5_block30_1_relu", "config": {"name": "conv5_block30_1_relu", "trainable": false, "activation": "relu"}, "class_name": "Activation", "inbound_nodes": [[["conv5_block30_1_bn", 0, 0, {}]]]}, {"name": "conv5_block30_2_conv", "config": {"kernel_constraint": null, "bias_initializer": {"config": {}, "class_name": "Zeros"}, "activity_regularizer": null, "use_bias": false, "strides": [1, 1], "dilation_rate": [1, 1], "filters": 32, "activation": "linear", "kernel_size": [3, 3], "padding": "same", "bias_constraint": null, "trainable": false, "name": "conv5_block30_2_conv", "kernel_regularizer": null, "bias_regularizer": null, "kernel_initializer": {"config": {"distribution": "uniform", "scale": 1.0, "mode": "fan_avg", "seed": null}, "class_name": "VarianceScaling"}, "data_format": "channels_last"}, "class_name": "Conv2D", "inbound_nodes": [[["conv5_block30_1_relu", 0, 0, {}]]]}, {"name": "conv5_block30_concat", "config": {"name": "conv5_block30_concat", "axis": 3, "trainable": false}, "class_name": "Concatenate", "inbound_nodes": [[["conv5_block29_concat", 0, 0, {}], ["conv5_block30_2_conv", 0, 0, {}]]]}, {"name": "conv5_block31_0_bn", "config": {"gamma_initializer": {"config": {}, "class_name": "Ones"}, "beta_constraint": null, "momentum": 0.99, "gamma_constraint": null, "name": "conv5_block31_0_bn", "epsilon": 1.001e-05, "gamma_regularizer": null, "trainable": false, "beta_initializer": {"config": {}, "class_name": "Zeros"}, "beta_regularizer": null, "axis": 3, "moving_mean_initializer": {"config": {}, "class_name": "Zeros"}, "center": true, "moving_variance_initializer": {"config": {}, "class_name": "Ones"}, "scale": true}, "class_name": "BatchNormalization", "inbound_nodes": [[["conv5_block30_concat", 0, 0, {}]]]}, {"name": "conv5_block31_0_relu", "config": {"name": "conv5_block31_0_relu", "trainable": false, "activation": "relu"}, "class_name": "Activation", "inbound_nodes": [[["conv5_block31_0_bn", 0, 0, {}]]]}, {"name": "conv5_block31_1_conv", "config": {"kernel_constraint": null, "bias_initializer": {"config": {}, "class_name": "Zeros"}, "activity_regularizer": null, "use_bias": false, "strides": [1, 1], "dilation_rate": [1, 1], "filters": 128, "activation": "linear", "kernel_size": [1, 1], "padding": "valid", "bias_constraint": null, "trainable": false, "name": "conv5_block31_1_conv", "kernel_regularizer": null, "bias_regularizer": null, "kernel_initializer": {"config": {"distribution": "uniform", "scale": 1.0, "mode": "fan_avg", "seed": null}, "class_name": "VarianceScaling"}, "data_format": "channels_last"}, "class_name": "Conv2D", "inbound_nodes": [[["conv5_block31_0_relu", 0, 0, {}]]]}, {"name": "conv5_block31_1_bn", "config": {"gamma_initializer": {"config": {}, "class_name": "Ones"}, "beta_constraint": null, "momentum": 0.99, "gamma_constraint": null, "name": "conv5_block31_1_bn", "epsilon": 1.001e-05, "gamma_regularizer": null, "trainable": false, "beta_initializer": {"config": {}, "class_name": "Zeros"}, "beta_regularizer": null, "axis": 3, "moving_mean_initializer": {"config": {}, "class_name": "Zeros"}, "center": true, "moving_variance_initializer": {"config": {}, "class_name": "Ones"}, "scale": true}, "class_name": "BatchNormalization", "inbound_nodes": [[["conv5_block31_1_conv", 0, 0, {}]]]}, {"name": "conv5_block31_1_relu", "config": {"name": "conv5_block31_1_relu", "trainable": false, "activation": "relu"}, "class_name": "Activation", "inbound_nodes": [[["conv5_block31_1_bn", 0, 0, {}]]]}, {"name": "conv5_block31_2_conv", "config": {"kernel_constraint": null, "bias_initializer": {"config": {}, "class_name": "Zeros"}, "activity_regularizer": null, "use_bias": false, "strides": [1, 1], "dilation_rate": [1, 1], "filters": 32, "activation": "linear", "kernel_size": [3, 3], "padding": "same", "bias_constraint": null, "trainable": false, "name": "conv5_block31_2_conv", "kernel_regularizer": null, "bias_regularizer": null, "kernel_initializer": {"config": {"distribution": "uniform", "scale": 1.0, "mode": "fan_avg", "seed": null}, "class_name": "VarianceScaling"}, "data_format": "channels_last"}, "class_name": "Conv2D", "inbound_nodes": [[["conv5_block31_1_relu", 0, 0, {}]]]}, {"name": "conv5_block31_concat", "config": {"name": "conv5_block31_concat", "axis": 3, "trainable": false}, "class_name": "Concatenate", "inbound_nodes": [[["conv5_block30_concat", 0, 0, {}], ["conv5_block31_2_conv", 0, 0, {}]]]}, {"name": "conv5_block32_0_bn", "config": {"gamma_initializer": {"config": {}, "class_name": "Ones"}, "beta_constraint": null, "momentum": 0.99, "gamma_constraint": null, "name": "conv5_block32_0_bn", "epsilon": 1.001e-05, "gamma_regularizer": null, "trainable": false, "beta_initializer": {"config": {}, "class_name": "Zeros"}, "beta_regularizer": null, "axis": 3, "moving_mean_initializer": {"config": {}, "class_name": "Zeros"}, "center": true, "moving_variance_initializer": {"config": {}, "class_name": "Ones"}, "scale": true}, "class_name": "BatchNormalization", "inbound_nodes": [[["conv5_block31_concat", 0, 0, {}]]]}, {"name": "conv5_block32_0_relu", "config": {"name": "conv5_block32_0_relu", "trainable": false, "activation": "relu"}, "class_name": "Activation", "inbound_nodes": [[["conv5_block32_0_bn", 0, 0, {}]]]}, {"name": "conv5_block32_1_conv", "config": {"kernel_constraint": null, "bias_initializer": {"config": {}, "class_name": "Zeros"}, "activity_regularizer": null, "use_bias": false, "strides": [1, 1], "dilation_rate": [1, 1], "filters": 128, "activation": "linear", "kernel_size": [1, 1], "padding": "valid", "bias_constraint": null, "trainable": false, "name": "conv5_block32_1_conv", "kernel_regularizer": null, "bias_regularizer": null, "kernel_initializer": {"config": {"distribution": "uniform", "scale": 1.0, "mode": "fan_avg", "seed": null}, "class_name": "VarianceScaling"}, "data_format": "channels_last"}, "class_name": "Conv2D", "inbound_nodes": [[["conv5_block32_0_relu", 0, 0, {}]]]}, {"name": "conv5_block32_1_bn", "config": {"gamma_initializer": {"config": {}, "class_name": "Ones"}, "beta_constraint": null, "momentum": 0.99, "gamma_constraint": null, "name": "conv5_block32_1_bn", "epsilon": 1.001e-05, "gamma_regularizer": null, "trainable": false, "beta_initializer": {"config": {}, "class_name": "Zeros"}, "beta_regularizer": null, "axis": 3, "moving_mean_initializer": {"config": {}, "class_name": "Zeros"}, "center": true, "moving_variance_initializer": {"config": {}, "class_name": "Ones"}, "scale": true}, "class_name": "BatchNormalization", "inbound_nodes": [[["conv5_block32_1_conv", 0, 0, {}]]]}, {"name": "conv5_block32_1_relu", "config": {"name": "conv5_block32_1_relu", "trainable": false, "activation": "relu"}, "class_name": "Activation", "inbound_nodes": [[["conv5_block32_1_bn", 0, 0, {}]]]}, {"name": "conv5_block32_2_conv", "config": {"kernel_constraint": null, "bias_initializer": {"config": {}, "class_name": "Zeros"}, "activity_regularizer": null, "use_bias": false, "strides": [1, 1], "dilation_rate": [1, 1], "filters": 32, "activation": "linear", "kernel_size": [3, 3], "padding": "same", "bias_constraint": null, "trainable": false, "name": "conv5_block32_2_conv", "kernel_regularizer": null, "bias_regularizer": null, "kernel_initializer": {"config": {"distribution": "uniform", "scale": 1.0, "mode": "fan_avg", "seed": null}, "class_name": "VarianceScaling"}, "data_format": "channels_last"}, "class_name": "Conv2D", "inbound_nodes": [[["conv5_block32_1_relu", 0, 0, {}]]]}, {"name": "conv5_block32_concat", "config": {"name": "conv5_block32_concat", "axis": 3, "trainable": false}, "class_name": "Concatenate", "inbound_nodes": [[["conv5_block31_concat", 0, 0, {}], ["conv5_block32_2_conv", 0, 0, {}]]]}, {"name": "bn", "config": {"gamma_initializer": {"config": {}, "class_name": "Ones"}, "beta_constraint": null, "momentum": 0.99, "gamma_constraint": null, "name": "bn", "epsilon": 1.001e-05, "gamma_regularizer": null, "trainable": false, "beta_initializer": {"config": {}, "class_name": "Zeros"}, "beta_regularizer": null, "axis": 3, "moving_mean_initializer": {"config": {}, "class_name": "Zeros"}, "center": true, "moving_variance_initializer": {"config": {}, "class_name": "Ones"}, "scale": true}, "class_name": "BatchNormalization", "inbound_nodes": [[["conv5_block32_concat", 0, 0, {}]]]}, {"name": "relu", "config": {"name": "relu", "trainable": false, "activation": "relu"}, "class_name": "Activation", "inbound_nodes": [[["bn", 0, 0, {}]]]}, {"name": "avg_pool", "config": {"name": "avg_pool", "data_format": "channels_last", "trainable": false}, "class_name": "GlobalAveragePooling2D", "inbound_nodes": [[["relu", 0, 0, {}]]]}, {"name": "fc1000", "config": {"kernel_constraint": null, "units": 1000, "bias_initializer": {"config": {}, "class_name": "Zeros"}, "bias_regularizer": null, "name": "fc1000", "bias_constraint": null, "activation": "softmax", "activity_regularizer": null, "trainable": false, "use_bias": true, "kernel_regularizer": null, "kernel_initializer": {"config": {"distribution": "uniform", "scale": 1.0, "mode": "fan_avg", "seed": null}, "class_name": "VarianceScaling"}}, "class_name": "Dense", "inbound_nodes": [[["avg_pool", 0, 0, {}]]]}, {"name": "dense_1", "config": {"kernel_constraint": null, "units": 2000, "bias_initializer": {"config": {}, "class_name": "Zeros"}, "bias_regularizer": null, "name": "dense_1", "bias_constraint": null, "activation": "relu", "activity_regularizer": null, "trainable": true, "use_bias": true, "kernel_regularizer": null, "kernel_initializer": {"config": {"distribution": "uniform", "scale": 1.0, "mode": "fan_avg", "seed": null}, "class_name": "VarianceScaling"}}, "class_name": "Dense", "inbound_nodes": [[["fc1000", 0, 0, {}]]]}, {"name": "dense_2", "config": {"kernel_constraint": null, "units": 1000, "bias_initializer": {"config": {}, "class_name": "Zeros"}, "bias_regularizer": null, "name": "dense_2", "bias_constraint": null, "activation": "relu", "activity_regularizer": null, "trainable": true, "use_bias": true, "kernel_regularizer": null, "kernel_initializer": {"config": {"distribution": "uniform", "scale": 1.0, "mode": "fan_avg", "seed": null}, "class_name": "VarianceScaling"}}, "class_name": "Dense", "inbound_nodes": [[["dense_1", 0, 0, {}]]]}, {"name": "dense_3", "config": {"kernel_constraint": null, "units": 100, "bias_initializer": {"config": {}, "class_name": "Zeros"}, "bias_regularizer": null, "name": "dense_3", "bias_constraint": null, "activation": "relu", "activity_regularizer": null, "trainable": true, "use_bias": true, "kernel_regularizer": null, "kernel_initializer": {"config": {"distribution": "uniform", "scale": 1.0, "mode": "fan_avg", "seed": null}, "class_name": "VarianceScaling"}}, "class_name": "Dense", "inbound_nodes": [[["dense_2", 0, 0, {}]]]}, {"name": "dense_4", "config": {"kernel_constraint": null, "units": 1, "bias_initializer": {"config": {}, "class_name": "Zeros"}, "bias_regularizer": null, "name": "dense_4", "bias_constraint": null, "activation": "softmax", "activity_regularizer": null, "trainable": true, "use_bias": true, "kernel_regularizer": null, "kernel_initializer": {"config": {"distribution": "uniform", "scale": 1.0, "mode": "fan_avg", "seed": null}, "class_name": "VarianceScaling"}}, "class_name": "Dense", "inbound_nodes": [[["dense_3", 0, 0, {}]]]}], "name": "model_1", "input_layers": [["input_1", 0, 0]], "output_layers": [["dense_4", 0, 0]]}, "class_name": "Model", "backend": "tensorflow", "keras_version": "2.2.4"}